results/DDDQN_UER_checkpoint.pth (torch_old, 330916 bytes, 11 tensors)

hidden_layers.0.weight f4 [128, 37]
00000000: ee98 463c 0ffd 13be b7ee e0bd 66fb 16be
00000010: a07c a1bd 9a11 40bc 7204 723d 1ba1 cc3d
00000020: 3113 153d 60d3 283e 593b 57bc c995 13be
00000030: f04a 5e3d d934 01be c77a f0bd 37e4 2bbe
00000040: ed79 02be 5afa 113e 74ac 8fbd fcae fdbd
00000050: 510b 8dbd 8123 213e 618f f83d 4454 863c
00000060: e6ff d4bd 934e a9bc a493 7ebd 7b99 95bd
00000070: 6fa4 7e3d 3f67 9b3d 0ea4 1abe 6720 34be
00000080: 08da 8fbd 7b9e ac3d d852 6fbd 97d7 3abc
00000090: a64b 12be fdf0 49bd e935 f8bd 5858 39bd
000000a0: 9d49 033e 470d e33d bb8c cc3c 9a4f 9fbd
000000b0: c9ad b93d 8088 3a3e 5d45 073e b09f efbd
000000c0: 30a4 fab9 6547 973d 03bd f2bd d44d 2b3e
000000d0: afa5 d63d 4bb3 203e b504 3bbd a9cf 82bd
000000e0: 832e 26bd efe7 d93c b6a6 61bd f30e 1e3c
000000f0: 1968 b03d 6709 cdbc a92c 463e 2cd0 1abe
00000100: 8fd9 ecbb 7d0a 04be 6050 ddbe d88b eabd
00000110: 21f1 f73b cbf7 32be a3b0 36be 23b3 87bc
00000120: 21cc 3c3d 670c cf3d 2a4a 75bd 35a6 a23c
00000130: 242e 6a3d 68b4 14bc 7c83 95bd 43ca d13b
00000140: cce8 a7bd de17 933d 9f0a 8a3d f980 f33d
00000150: 1478 6bbd 6be5 f13d 783f 17be 4a98 14be
00000160: d036 743d ae36 6bbe c1b0 78bd 782a 0c3e
00000170: 0203 893d 5347 a83d aafb f33c 1dc7 a7bc
00000180: bb13 553d 8566 3e3e 9384 da3c c53f bc3c
00000190: b9f8 22be d49b 92bd c896 af3d b460 1a3e
000001a0: e7ef 143e ffc5 b13c a967 87bd 40fb 913d
000001b0: 72fc 65bd 2cec da3c 2edf b0bd 74ee f8bd
000001c0: a4f5 ad3d c852 9cbd 8c60 ca3d dd30 753d
000001d0: 453c 253e 314b 973a 0653 2dbd e41a 0e3e
000001e0: 51b5 963e 1647 3d3d 4e6f 533e 4993 3aba
000001f0: 2ad8 fd3c a18f cbbd 48f0 adbd 972b f03c
00000200: 953e e5bd cb21 e83c 87d6 983d 4fc0 73bc
00000210: 1ef4 12bd 0b65 643d 2bfe 9f3d 8b84 dfbc
00000220: bc4a 2bbe 69f5 43bd 9d77 f3bb 720b 603e
00000230: 66d2 f73e c859 b53d 2be5 a63d b5ab 91bd
00000240: eb91 363e 76b9 cc3c 560b c63d 0ed8 383c
00000250: f63b c83d d80e bebc 4d37 f5bd c8a7 3dbd
00000260: df77 81bc 0d2c 193c 3ca6 9dbc dec3 ffbc
00000270: 3e60 293e cd9b 693e 178a b03d d4cb 15bd
00000280: 3b2a b83d cef0 e73d 091d 8ebc d7e3 d2bd
00000290: 5a33 1cbe c851 07be 30f8 77bd 9ead 5fbe
000002a0: 3a09 bd3c 960e 333d 3b51 dcbc f5bb 953d
000002b0: af32 68bb c1f7 4b3c 3ff6 e6bd 4eed 6dbe
000002c0: 5a61 4bbe 9c68 dabe 3f2d 823d 5a3f e33c
000002d0: 0d8e 62bd 1b68 39be 8462 443e 315c fdbc
000002e0: 7768 c53d eb1d 253d 5e63 b63d ee34 183e
000002f0: 2092 81bc abad 9abd 0d89 28be 43b8 e73d
00000300: 75b9 46bd 6b09 82bd bd4d 0fbe 0a08 173b
00000310: 4f25 213d d0a3 3d3e f0c5 263d d6af 073e
00000320: d123 ddbd daec 18be 1386 53bd fff3 81bd
00000330: 02e1 65be 2408 a63c 1528 c63d 81e9 3c3e
00000340: a7b0 303d cef3 263e 8a39 623e 34fd b1be
00000350: 0db0 d03d 0da3 b83d 78f9 3abf a99a 26be
00000360: 135e e33d eb11 053e a87d 71bd a6a9 90bd
00000370: c607 ce3d ec85 dd3c 7f58 b53d 7ec7 a5bd
00000380: 3603 b4bd 474e 223d aca3 4e3d 41ed 803d
00000390: 22a7 67bb d673 ea3c 033d 203e c4ee 5f3e
000003a0: 8d30 823d 56d8 0dbe 298c 24be 61da 0c3e
000003b0: 1d67 87bd 7f5c c33d 5301 aebd a258 f13d
000003c0: 28e3 99bd 6c8f 17be fc6b f3bc e857 87bd
000003d0: cd3f 07bc ebf9 243d 0cc7 e33c 3ad8 f0bc
000003e0: 0aaa 00be 1917 b3bd ae71 32be e71c 59be
000003f0: d959 d3bd e55f f13d d4ee dfbd 7a6e f9bd
0.012121422 -0.14452003 -0.10983031 -0.14744338 -0.078850985 -0.011722947 0.05908627 0.09991666
0.036395255 0.16486883 -0.013136708 -0.14412607 0.054270685 -0.12617816 -0.11742168 -0.16786276
-0.12741823 0.14255658 -0.07015315 -0.12386891 -0.06886924 0.157362 0.12136722 0.016397603
-0.10400371 -0.02066735 -0.06215252 -0.07304665 0.062168535 0.07588052 -0.15101644 -0.17590486
-0.07024008 0.08428665 -0.058428615 -0.01140394 -0.1428667 -0.04930209 -0.121196575 -0.045250267
0.1282105 0.11086517 0.02496945 -0.07778855 0.0906635 0.18216133 0.13210054 -0.1170038
-0.00047806045 0.07386664 -0.118524574 0.16728908 0.104808204 0.15693395 -0.045658786 -0.06387264
-0.0405717 0.026599852 -0.05509063 0.009647119 0.08613605 -0.025028897 0.19352974 -0.15118474
-0.0072280834 -0.12894626 -0.43225384 -0.11452454 0.0075665866 -0.17477338 -0.17840819 -0.016564911
0.04609311 0.101097874 -0.05988518 0.019854644 0.05717291 -0.009076215 -0.07300469 0.0064022853
-0.08198699 0.07182287 0.06740307 0.11889834 -0.057487562 0.11811336 -0.14770305 -0.14511219
0.059622586 -0.22970077 -0.06071544 0.13688076 0.06690027 0.08216729 0.029783089 -0.020480687
0.05202077 0.18593796 0.026674544 0.022979626 -0.15915193 -0.07158628 0.08573681 0.15075952
0.1454464 0.021700857 -0.066115685 0.07128 -0.056148954 0.026723944 -0.08636318 -0.12154856
0.08494118 -0.07632977 0.09881696 0.059861053 0.16136272 0.0011542795 -0.042315505 0.13877445
0.29435208 0.04621037 0.20647928 -0.0007117284 0.030986864 -0.099395044 -0.08493096 0.02931766
-0.11193577 0.028336426 0.07462793 -0.014877393 -0.03587734 0.055760425 0.078121506 -0.027284881
-0.16727728 -0.047841463 -0.0074300305 0.21879366 0.4840271 0.08855015 0.08149179 -0.07112829
0.17829101 0.024990778 0.09670131 0.01128198 0.09777062 -0.023200437 -0.119734384 -0.046302587
-0.01580423 0.009348881 -0.019244306 -0.031221326 0.1654062 0.2281334 0.086200885 -0.03657134
0.0899243 0.11325227 -0.01734783 -0.10297363 -0.15253964 -0.13214791 -0.060539424 -0.21843573
0.023075689 0.043715082 -0.026894202 0.073112406 -0.00354306 0.012449206 -0.112774365 -0.23235056
-0.19861355 -0.42657936 0.06356286 0.02774017 -0.05531125 -0.1810612 0.19178206 -0.03092775
0.09639066 0.040311735 0.089056715 0.14863941 -0.015816748 -0.07552656 -0.1645853 0.11314442
-0.04851671 -0.063494526 -0.13994499 0.0023045563 0.03934222 0.18519521 0.04071611 0.1325067
-0.10797847 -0.14934102 -0.051641535 -0.06345367 -0.22449115 0.020267554 0.09675614 0.1844845
0.04313722 0.16303942 0.22092262 -0.3476349 0.10189829 0.090154745 -0.7303691 -0.16269936
0.111019276 0.12995116 -0.058957726 -0.07063608 0.100600764 0.027041398 0.0885477 -0.08094691
-0.08789675 0.039625432 0.05044906 0.062952526 -0.0035347422 0.028619688 0.15648274 0.21868426
0.063569166 -0.13852057 -0.16069092 0.1375518 -0.06611464 0.095391266 -0.08496346 0.117844835
-0.0751403 -0.14800805 -0.029714577 -0.06608564 -0.008254957 0.040277403 0.027804874 -0.02939998
-0.12564865 -0.0874464 -0.17426178 -0.21202432 -0.103198715 0.117858686 -0.10934225 -0.12179275

hidden_layers.0.bias f4 [128]
00000000: e87b 5abb 1a5f f5bc 29d0 96bc f016 703d
00000010: 5986 28bd af8b 8a3c c959 d0bc f20f 9a3b
00000020: 8b8e dd3c 3ab8 363d 4ecb 363b 1cb9 933b
00000030: 5479 233d b5bf 0dbd 32b3 933c 64a8 babb
00000040: 3aa9 4b3d 4f0c d33c c7df 37bc bc09 d9ba
00000050: 7aea 093d 3c75 08bd 63df 053d b35f ab3c
00000060: 1001 933c f99b 79bd 81e5 d1bc e575 3abc
00000070: 8ac6 993c b3ed acbc 1919 c53c c334 98bc
00000080: 590c 5abc 7480 083b 5a04 4b3c d0f8 e6bc
00000090: fba9 093d 46c1 493c 0823 243c 7051 23bc
000000a0: f458 413b cda0 30bd 35aa 8e3d fd74 373d
000000b0: f6b1 9e3c 6606 cc3c d617 24bd bbda 9dbc
000000c0: 5579 5a3d 9f5a 233c 4507 c4bc d403 f3ba
000000d0: 8766 7d3c 12c6 953c 06e6 df3c 8771 35bc
000000e0: 7f3b 5c3b 030b cdbb c7d1 663c 468e b0bc
000000f0: 8f78 253d 576e c9bb e30d 75bd b7a3 d43b
00000100: 0e42 813c 7a15 96bc a5e2 bebc 8922 06bd
00000110: ca35 3ebd 23bf 15bb b83b e5b9 3d39 1c3c
00000120: cc17 d83c d795 783c f7e9 3a3c dd2b f4bb
00000130: bbb7 2bbd af8a 543d 1d7a e63b e1ba f73c
00000140: 0953 c63b 28e9 143c 8c9c 0abc 77e4 7cbc
00000150: 4711 db3c 710e 243d 8ce9 b6ba 6fcb e0bb
00000160: bd1f 95bc 74ee 753c 2017 bbbc b976 363d
00000170: 62f0 143d a61f 613c 0a5c 333c 8da3 883c
00000180: 867f a4bb b225 1a3d a9be f43b fc2e b9bc
00000190: 2bb1 423d 4747 fc3c 2e8b f13a 8a14 d9bb
000001a0: 4f00 023c 0215 01bd f16e 683c 5066 3fbd
000001b0: be96 2d3c 561c 90bb 17d3 163d e076 c4ba
000001c0: 4334 283d ae74 173d 64da cc3c 6b6a 5bbb
000001d0: ad9d d33c f4f9 e73c 8660 a73c f78b 863d
000001e0: 98a4 133d 6af8 c2bc ba0e a33c 556a 52bd
000001f0: 19ab 1ebc 6a71 fdbb ed20 18bc 494d 2e3c
-0.0033338014 -0.029952575 -0.018409805 0.058615625 -0.04114375 0.01691231 -0.025433438 0.004701608
0.027045509 0.044609286 0.0027892175 0.0045081507 0.03991063 -0.034606654 0.018029783 -0.0056963433
0.049721934 0.025762705 -0.011222786 -0.0016558687 0.03367088 -0.03331493 0.03268374 0.020919656
0.017944843 -0.060939763 -0.025622131 -0.011380647 0.018771429 -0.021109438 0.024059819 -0.018579846
-0.013308608 0.0020828517 0.012391174 -0.028194815 0.03360937 0.012314146 0.010018118 -0.009968147
0.0029502483 -0.0431221 0.06966058 0.044789303 0.019371968 0.024905395 -0.040061794 -0.019269338
0.053338367 0.009970336 -0.023929248 -0.001854057 0.015466339 0.018282924 0.027331363 -0.01107443
0.0033604798 -0.006257416 0.014088101 -0.021552216 0.040398177 -0.0061471867 -0.059827697 0.006489243
0.015778568 -0.018320788 -0.023301432 -0.03274778 -0.046438016 -0.0022849522 -0.00043722778 0.009535131
0.026378535 0.015172443 0.011408321 -0.007451518 -0.041923266 0.05189007 0.0070336 0.030240478
0.006052379 0.009088792 -0.008460175 -0.01543533 0.026741637 0.040052835 -0.00139551 -0.0068601887
-0.01820361 0.015010465 -0.022838175 0.044546816 0.03636206 0.013740456 0.010947237 0.01667955
-0.005020085 0.037633605 0.0074690175 -0.022605412 0.04753224 0.030795706 0.001842832 -0.006624763
0.007934644 -0.031514175 0.014186607 -0.046728432 0.010595022 -0.004397909 0.036822405 -0.0014989041
0.041065466 0.03697651 0.02500648 -0.0033480178 0.025832022 0.02831743 0.020431768 0.06569665
0.03604564 -0.023800094 0.019904483 -0.051370937 -0.009684348 -0.0077344673 -0.009285194 0.010638543

hidden_layers.1.weight f4 [64, 128]
00000000: 7afe 7cbd 63fb c0bb 17a5 073e c057 43be
00000010: dd99 003e 9940 2f3e f0ff eabc a07c f8bd
00000020: 828a 083e 35c6 8d3d e510 26be 5f8e 0cbd
00000030: 8fc6 533c 0a38 6c3d 6bea 9dbd fd5e 0cbe
00000040: 4ee9 473e e2e1 04be 7f14 b2bd 4e6b ef3d
00000050: f384 dfbd 8fe9 78bd e389 02bc fdd7 c13d
00000060: 40b1 c5bd 6a26 1cbd 5b54 5fbd fa05 febc
00000070: c4d4 efbd 3256 9c3d 7db1 193d 2f41 c4bd
00000080: 9aac d43b 0692 c23d fee3 353d f117 fc3d
00000090: 0619 8dbd 9e5a 9dbc 9155 373d 3a17 993d
000000a0: 7b17 103e 43b0 7f3d 6d9a 09bc 31b6 70bd
000000b0: 2621 cf3d c25a 27be 3f5d 183e 9dc7 173e
000000c0: f933 00be 6065 193e b55f cbbd 3999 d4bd
000000d0: d398 253e f8c8 68be c88e 83bd f534 30be
000000e0: fcae 3d3e 7beb 5d3d c8ac 2bbd 10ca 093d
000000f0: 08cc acbd 8184 d0bc 358f 59be 9afc 153e
00000100: 0f09 1f3d e841 ae3c f368 d3b9 a704 22be
00000110: 7d2c 633d bb4a ee3d 723b 80bd 5d66 c83d
00000120: 1739 abbd 8bdf a43d f47b 873c d18a b93d
00000130: d2de 2c3e 35bb f3bd 395b 74bb 7166 24be
00000140: f249 e2bd 697a 58be cb93 50bd 7be9 6fba
00000150: b5fd 933d ebb1 56be 51cb 4e3d a7d8 e2bc
00000160: 73c9 213e d41e 9dbd 48e6 dcbd 7e0b bf3d
00000170: c85d 3fbc 86a5 66be 5d4d 603c 3ece 0bbe
00000180: bbd0 55bd 7c8b b83c 94e4 fbbd 7271 aebd
00000190: 9001 603e 03e2 f43c 171e 85bc 0048 97bd
000001a0: 555d 83bd 6979 ba3d 5725 b83d bbdb 81bd
000001b0: 332e 85bd 69b8 b3bd c493 03bd bd46 f1bd
000001c0: b6a0 093e 500b 15be 5be2 1cbe 752a f6bd
000001d0: 488b 31bd a92f 6e3d 181c fdbd 77e7 edbc
000001e0: c15e 8cbd 8757 37be dc63 cbbc 02f9 c93d
000001f0: f49f 5cbd b2e8 0e3e ebb7 b4bd c7da f1bd
00000200: b546 d7bd 4bf9 143e a59a 73bc 0dbf 17be
00000210: 6e37 1e3e d196 1a3e f54a d4bd 10ec 933d
00000220: e7cc ac3c bc06 f93d ae7e f93c 8720 b3bd
00000230: a6a8 d0bd 9c39 b5bd 137b 003c 014d 11be
00000240: 5f3e d2bc a024 053d b396 c63c 73c7 703e
00000250: 94db 8c3d fde8 19bd 7b67 edbd 1674 bc3d
00000260: 4242 3cbe b94f 993b a203 da3d 99e1 e8bd
00000270: 515f 0cbc 5afa 903b 5536 aebc 0459 a03d
00000280: 3842 ae3d e218 0cbe 111e 5a3e 4587 24be
00000290: 350a b53a 75b9 f13d 5e8f 24be ba35 983c
000002a0: 9dda 453e 4c8c 06be 7038 233e a94e 153e
000002b0: b32d 123e 247b 3b3e 6a4f dbbd a58e a9bc
000002c0: ece8 22bd 4d03 2f3e f447 d2bd de3e 23be
000002d0: a8e7 d03c 6184 05be 55e5 cc3d b7cd 0bbe
000002e0: 80d6 d73d cd88 053e 9028 343d 3994 d6bd
000002f0: 4e7c 6cbe 9fec 223d e9ee 28be 139b 433d
00000300: 6214 62bc d92a 293e e5fd 203e 3953 163e
00000310: 4df5 f33c 12ec 15bd cb42 873d 4080 373e
00000320: 176a fcbc bac1 7e3d 3425 1c3d d3e1 073e
00000330: fe9f 593d 9a2a 213e 8df5 973d 78bd 9bbd
00000340: 5e8a e4bd 76a8 b63d 521f ea3d a3e9 e5bd
00000350: 2e98 20be 45bf c83c d583 f1bd a844 573d
00000360: 5cdd 423d a33e 11be e735 85bc f7c0 153e
00000370: a7f2 0d3e 0fa1 b7bd e9f0 c33d 2a6a ec3d
00000380: 1d46 29be 1218 05be 2b84 49bd e4ea f23d
00000390: 2bb7 f6bd 8db3 88bc 9582 0d3e cf81 58bd
000003a0: e2a4 24bc c361 5cbd 009d 723d 1de1 9cbd
000003b0: 41d4 acbd 4057 d2bd 80ad 4e3d 0052 8cbd
000003c0: 58c8 273d ca94 99bd cd34 e0bd 297d 13be
000003d0: 0b00 35be 09f3 aebd 21ef 2e3d b60a 25be
000003e0: dfcf 5c3d e425 99bd 3030 12bd 69fe 033e
000003f0: deca 4b3d 0867 9f3c 832c d4bd 22bd 623c
-0.061766125 -0.0058893426 0.1324657 -0.19076443 0.12558694 0.17114486 -0.028686494 -0.12133145
0.13334087 0.069225706 -0.16217382 -0.034315463 0.012925758 0.05767063 -0.07710727 -0.1370811
0.19522592 -0.12976792 -0.086953156 0.116903886 -0.1091403 -0.060769614 -0.007967445 0.094650246
-0.096529484 -0.038122572 -0.054523807 -0.03100871 -0.11710504 0.07633628 0.03752278 -0.09582745
0.0064903023 0.09500508 0.044406883 0.12309254 -0.068895385 -0.019208249 0.044759337 0.07475133
0.14071457 0.062423956 -0.008398634 -0.0587675 0.101137444 -0.16343215 0.1487932 0.1482224
-0.12519826 0.14980078 -0.09930364 -0.103807874 0.16171579 -0.22732913 -0.06423718 -0.17207702
0.18523782 0.05417965 -0.041912824 0.033639967 -0.084373534 -0.025453808 -0.21246035 0.14647141
0.038827 0.02127166 -0.0004032325 -0.15822087 0.05546235 0.116353475 -0.06261338 0.09785149
-0.083604984 0.0805045 0.016538598 0.0905968 0.16881874 -0.11900941 -0.0037285818 -0.16054703
-0.1104926 -0.21140446 -0.050922196 -0.0009151918 0.07226125 -0.20966308 0.050486866 -0.027691199
0.15799503 -0.076718956 -0.1078611 0.09328364 -0.011680074 -0.2252408 0.01369032 -0.13652894
-0.052201014 0.022527449 -0.12299457 -0.08517732 0.21875596 0.029892927 -0.0162497 -0.0738678
-0.06414286 0.091051884 0.08991497 -0.063407384 -0.065029524 -0.08775408 -0.032123342 -0.117810704
0.13440213 -0.14555097 -0.15320723 -0.12019817 -0.04334572 0.05815092 -0.12358874 -0.029041035
-0.068540104 -0.17904483 -0.02482789 0.098619476 -0.05386348 0.13955954 -0.08824142 -0.118093066
-0.10511533 0.14548223 -0.014868413 -0.14818974 0.15450832 0.15096594 -0.103658594 0.0722276
0.021093799 0.121594876 0.030455913 -0.087464385 -0.10188417 -0.08848879 0.007841843 -0.14189531
-0.025664506 0.03250563 0.02424178 0.23513584 0.06877819 -0.03757571 -0.11592003 0.09201829
-0.1838465 0.004678693 0.10645224 -0.11371154 -0.008567647 0.0044243755 -0.021266142 0.078294784
0.08508724 -0.13681367 0.21300532 -0.16067226 0.0013812246 0.11802951 -0.16070315 0.018580306
0.19321676 -0.13139457 0.15939498 0.14580788 0.14275245 0.18308693 -0.107085064 -0.020697901
-0.039772913 0.17091103 -0.1026763 -0.1594195 0.025501087 -0.1303878 0.10004679 -0.13652693
0.105389595 0.13040467 0.043983996 -0.1047749 -0.23094293 0.03977644 -0.16497387 0.047755312
-0.013798805 0.16520251 0.15721853 0.14680184 0.029780054 -0.036602087 0.066045366 0.17920017
-0.030812306 0.06219647 0.038121417 0.13269739 0.053131096 0.15738907 0.07419882 -0.07604498
-0.11159204 0.0891885 0.11431755 -0.11226203 -0.15683052 0.024505267 -0.11792723 0.05255571
0.047574386 -0.1418405 -0.016261054 0.14624391 0.13862096 -0.08966266 0.09567434 0.11543687
-0.16530652 -0.12997463 -0.04919831 0.11861208 -0.12046655 -0.016687179 0.13819344 -0.05285817
-0.010049077 -0.05380417 0.059231758 -0.076601245 -0.08438922 -0.10270548 0.05045843 -0.06851578
0.040962547 -0.074990824 -0.10947571 -0.14403214 -0.17675798 -0.08542449 0.04270852 -0.16117367
0.05390918 -0.0747793 -0.035690486 0.12890019 0.049754016 0.019458309 -0.103600524 0.013839038

hidden_layers.1.bias f4 [64]
00000000: 69c9 72bc 06fb a1b8 ad35 cd3c f3b8 5abb
00000010: 171f c0ba 728e cf3c 0458 8c3c 112d e83b
00000020: 89d1 4b3b 86e0 643b e141 3a3c aebb 10ba
00000030: 6629 0e3c 2f7e 03bc 388b 953c 7661 153c
00000040: 1d86 89bb 47a6 07bc edb2 1b3d 5435 9a3c
00000050: 7748 453c 67b5 a23c f251 5c3c 3c00 093c
00000060: 339a b33b d85b b13c b97d 263c 4712 f03a
00000070: 000a fd3c ca80 d83b 0b4e f93a 37b2 b83c
00000080: 3d3f c63c 5e03 883b fd1e 1b3b 7df9 183c
00000090: ee62 ad3b 745c 50bc 8e8c 9cbc 1b32 24bb
000000a0: faee 403b 1f32 de3b 76c1 453c 96f2 e93c
000000b0: 358a d1bc 4feb 45bb 0405 3b3c 09e5 3b3d
000000c0: d53a 56bc 821a 593c 76fa 49bb af55 5bbb
000000d0: 2dd8 5c3b 2b01 eb3c 8def 423d c201 b7ba
000000e0: e7e7 743c 75a0 813c 2f16 833c 2425 6b3c
000000f0: 7305 073d 60d8 c73b 95cd 26bc f0e3 c93c
-0.014818528 -7.723835e-05 0.025050009 -0.0033374398 -0.0014657703 0.025336478 0.017131813 0.0070854505
0.0031100234 0.0034923865 0.011368246 -0.00055211305 0.008676862 -0.00802569 0.018254861 0.009117475
-0.0041968958 -0.00827939 0.038012434 0.018824257 0.012041203 0.01986189 0.013447272 0.008361872
0.0054810285 0.02165024 0.010161811 0.0018315994 0.030888557 0.0066071497 0.0019020451 0.022545917
0.024200076 0.004150792 0.0023669594 0.009336826 0.0052913344 -0.012717355 -0.01910999 -0.002505428
0.0029439316 0.0067808772 0.01207005 0.028558057 -0.025578598 -0.003020007 0.01141477 0.04587272
-0.01307555 0.013250949 -0.0030819452 -0.003346782 0.0033698187 0.02868708 0.047591735 -0.0013962316
0.014947868 0.015823582 0.016001789 0.014352117 0.03296418 0.006098792 -0.0101808505 0.024644822

fc1_value.weight f4 [512, 64]
00000000: 01e2 6abd 5559 e33c 56b9 0abd eb55 c8bc
00000010: bf85 d33c 55f8 983c 6a5a 06bd 12b4 473d
00000020: 2772 68bd 24e0 b33d 2d84 df3a 1017 a93d
00000030: 068f 693d 54fc d53c 31e9 bcbd 69be 9e3d
00000040: 1b26 0abd 5ed7 41bd c249 673d d3bc 01bd
00000050: 730e 733d c52c 82bc 2763 5abd d43d a03d
00000060: 5eb2 f73c 8fc2 a23d 94e7 703d 3985 6fbd
00000070: 67ff c7ba cd5e cfbd 5098 813d 14fe a83d
00000080: 647b ccbb ac0c 53bc 0c5c 1cbd 625b d73d
00000090: 6048 d93d 6a44 f1bd 75c0 a5bd 8319 e7bb
000000a0: 6c6a 99bd bf3a 5d3b 1f60 26bc 9196 cfbc
000000b0: ca53 bf3d 710f ad3d d5ea 13bd 9000 38bc
000000c0: 6ba2 2dbd adae 48bc 8396 31bd dd13 643c
000000d0: 44c4 2a3d 3eb9 2abd b04a a8bd 7bbf 31bd
000000e0: 0bb3 79bd e20b 4ebd 0a62 b5bd 09f7 87bd
000000f0: ce2d 3b3d bd83 84bd 377a b2bd 1d64 293c
00000100: d44f 083d 24ff 533d 50ee 433d 6921 c0bc
00000110: ad73 26bd 52d2 d53c 5579 02be 1ccc 293d
00000120: 0ad3 8b3c 58bf 063d 5c88 d6bd f74d 783d
00000130: 9160 af3b eb02 98bd 87d4 e5bd 1b1f 9f3c
00000140: 5906 643d 1f7c 3c3d 26a7 ac3d bbfb d2bd
00000150: 40f1 fcbd 894d 043b 35e9 0cbd 84e1 ca3b
00000160: f666 ae3c 9c5d fabc 9800 85bc ebd6 5ebd
00000170: 1a27 6fbd 2c8e dd3c acdf 4d3d 83c9 45bb
00000180: 704d 473d 4de1 11bd b51c 423d 843a b1bd
00000190: 3edc 44bd 4ce2 22bd 2932 533d 5845 cc3d
000001a0: 44d7 69bd 3ecf 24bd 023d 49bd e8ff 3c3d
000001b0: 33c0 123d 3a40 913c a744 4cbd 7dc6 c0bc
000001c0: efc0 523d d6f5 a7bd 72ae 0a3d 90b7 80bd
000001d0: 3232 f73c a0df b7bd b847 ab3b 4b83 30bd
000001e0: aa5e dbbd f3ef 23bd e8df 113d e66c 343d
000001f0: 31e6 f9bd 0fa7 1ebe a4b4 a13c 4c44 bd3d
00000200: 8a76 7c3d 2efc 4ebd b4a1 143d da2f 69bd
00000210: 50f8 d93d d97d 583b f22e 543c b26a 99bb
00000220: fa9b fdbc c956 f7bd f87e 0bbe e1de b83d
00000230: 4751 ed3c 796e 5dbd 01a3 033e f35f ce3d
00000240: 950b d9bb 11bf ce3d f0c9 9c3d 84a5 103d
00000250: d8d4 f2bd 2655 c1bd a367 eebc b1f7 b73d
00000260: f0d4 6dbd ec83 d2bd 851d 883d 4665 15bd
00000270: a76f 253d e8ae 99bd 6329 a13d 7181 3abc
00000280: 8de3 c4bb 7df5 a33d 2a7e 61bd e861 99bc
00000290: 6769 79bd 14b5 e9bc 2805 083d c0d6 d83d
000002a0: b887 16bd 3c5d 063d a39d a1bd a91c 74bc
000002b0: 16df 29bc 3b14 d43d 4b38 ac3d 3b92 923c
000002c0: f276 e6bd b2bd 4bbc 1a39 3f3d d156 c9bd
000002d0: 82ff 36bd 1b13 f63c 1006 76bc 9a13 18bd
000002e0: aadd 07bc a0f8 3c3b b66e 683d 2337 76bd
000002f0: 86f1 6b3d d3d2 b43a 515f 953d 50c7 333d
00000300: aec3 0bbc e271 80bd 8c81 f8bc 3705 45bd
00000310: 3c53 3d3d 892b e2bd 0dd1 47bd fca5 9abd
00000320: a194 293d f04d 903d a61c e93c 6b96 b7bd
00000330: 40f9 d2bd 0151 693d 896b 223d e3d7 133d
00000340: 3225 97bd 54a9 ccbd ee67 ed3b eb12 9f3d
00000350: ea36 5dbd 7b0b b9bd f4f6 ddbd 3625 383d
00000360: c354 8cbc d7a0 133d df75 87bd cb0e efbd
00000370: a35e cc3d e9c3 49bc b8cc 843d 151e ebbd
00000380: 419b 9abd 8ad3 ec3b 28a0 8539 cce5 803d
00000390: b452 7d3d 8c95 9bbd ea92 3e3d e44d 4abd
000003a0: 0543 9cbc 2469 b8bd db08 64bd 2f49 5e3d
000003b0: 5497 03bd e056 9bbd 0833 47bd 4b31 eabd
000003c0: 17f2 733c 0e15 8e3d e132 453d db14 bcbd
000003d0: b3bc 993d 33cf adbc 318e 7dbd d154 70bd
000003e0: e6f6 a5bd 0ad4 903d 63bf bebb 0a80 72bd
000003f0: 63cd 35bd 3bf2 f5ba b9fe a6bd 5c4c 5ebd
-0.05734444 0.027752558 -0.033868156 -0.024455031 0.025820611 0.018673101 -0.03280107 0.048755713
-0.05674949 0.08782986 0.0017052941 0.08256352 0.057021163 0.026121296 -0.09224165 0.077511616
-0.033727746 -0.04732453 0.056466825 -0.031674217 0.05933995 -0.015890488 -0.053317215 0.07824293
0.03023642 0.07947265 0.0588146 -0.05847666 -0.0015258611 -0.10125504 0.063278794 0.082515866
-0.0062402952 -0.012881439 -0.03817372 0.10515477 0.106095076 -0.11780627 -0.08093349 -0.007052602
-0.074910015 0.003375694 -0.010154753 -0.02534035 0.09342153 0.08450211 -0.036112625 -0.011230603
-0.042391222 -0.012248677 -0.04335643 0.013920751 0.04169108 -0.041680567 -0.082173705 -0.0433955
-0.060961764 -0.0503043 -0.0885659 -0.06638915 0.04569798 -0.064704396 -0.08714717 0.01033881
0.033279255 0.051756993 0.047834694 -0.023453431 -0.04063766 0.026101265 -0.12741597 0.04145442
0.017068405 0.032897323 -0.10475227 0.060621228 0.005352088 -0.074224316 -0.11222177 0.019424012
0.055670116 0.04601681 0.084303185 -0.1030192 -0.12350702 0.0020187816 -0.03440209 0.0061914343
0.02128933 -0.030562215 -0.016235635 -0.05440418 -0.0583869 0.027045332 0.05026214 -0.0030179925
0.048657835 -0.035615254 0.04739066 -0.08653739 -0.0480616 -0.039766595 0.05156151 0.09974164
-0.05709006 -0.040236704 -0.049130447 0.04614249 0.035827827 0.01773082 -0.04987016 -0.023532147
0.051453527 -0.08201186 0.03385777 -0.06285012 0.030175302 -0.089782 0.0052270554 -0.04309396
-0.10711415 -0.040023755 0.035613924 0.044049166 -0.12202109 -0.15493415 0.019739456 0.09241542
0.061636485 -0.050533466 0.036287025 -0.0569304 0.10643065 0.0033033995 0.012950646 -0.0046819085
-0.030958164 -0.120771 -0.13622653 0.09026886 0.02896942 -0.054060433 0.1285515 0.100768946
-0.006623695 0.10095037 0.07655704 0.035314098 -0.11857003 -0.09440069 -0.029102152 0.0898279
-0.0580644 -0.10279068 0.066462554 -0.036473535 0.040389683 -0.07504064 0.07869222 -0.0113834
-0.0060085715 0.080058075 -0.05505196 -0.018723443 -0.060891535 -0.028528728 0.033208042 0.10587835
-0.036750525 0.03280376 -0.07891395 -0.014899411 -0.010368129 0.10355421 0.084091745 0.017891994
-0.11253156 -0.012435364 0.046685316 -0.09831012 -0.044677265 0.030038407 -0.015016094 -0.03712807
-0.008292595 0.0028834715 0.056746207 -0.060111176 0.05760338 0.0013795741 0.07293571 0.04389125
-0.00853054 -0.062717214 -0.03033521 -0.048100676 0.046221957 -0.1104346 -0.04878335 -0.0755119
0.04140151 0.070461154 0.028456043 -0.08964237 -0.10301447 0.056962017 0.039653335 0.036094557
-0.07380141 -0.09993234 0.0072450554 0.0776728 -0.05400745 -0.09035393 -0.10838118 0.044957362
-0.017130261 0.03604206 -0.06614279 -0.116727434 0.09978988 -0.012314775 0.064843595 -0.11480347
-0.075491436 0.007227366 0.00025487063 0.0629383 0.06184645 -0.07596883 0.046526827 -0.04939069
-0.019074926 -0.09004429 -0.055672508 0.054269012 -0.03212674 -0.075849295 -0.04863265 -0.11435183
0.014889262 0.069376096 0.048144225 -0.09183665 0.07506695 -0.021216964 -0.061903182 -0.058674637
-0.08103733 0.07071693 -0.005821155 -0.05920414 -0.044385325 -0.0018764207 -0.08154053 -0.05427204

fc1_value.bias f4 [512]
00000000: aa68 823d 65e0 02bd 2142 5f3d b744 09bd
00000010: 11aa 24bc 2526 a83d 5e76 313d 5ef7 1abd
00000020: c2ce 8f3d 4583 723d cd65 a13d 172b 483d
00000030: 278b 6d3d 945d 6f3d 44b3 533d 2cde 2abd
00000040: 778a 0e3d a860 343d 1c46 a23d b958 eebc
00000050: 26ff bdbc 491a a33d f01c 6c3d a0e2 5c3d
00000060: 85cf 0bbd 6d46 9a3d 8e30 1bbd aff8 57bc
00000070: 5732 9d3d 99d9 523d 5a83 dabc ba3a efbc
00000080: be40 09bd e736 9d3d 6b74 913d b69c 12bd
00000090: 3bb5 0abd 5ee7 793d 5572 903d 4172 5cbd
000000a0: 0e20 323c 56c8 b33d adc3 8ebd 19f9 673d
000000b0: 6e1e 66bd 0ef5 893d 99f6 b23d 0b04 8bbd
000000c0: 7f03 9f3d 2c41 a53d 936a 08bd d325 39bd
000000d0: d692 93bc 1346 35bd f56b 15bd e805 7e3d
000000e0: 08b4 853d 2a57 893d d97b 0abd 1b15 54bd
000000f0: 31c2 a63d 5517 55bd 7387 1dbd 57dc 913d
00000100: c253 35bd 8fe5 a7bd 7f26 c5bc 1c86 32bd
00000110: 38df a13d cbfb 6d3d 2c7c 2d3d 812a 6cbd
00000120: d7c9 903d f211 aebc 78f9 ae3d c987 8e3c
00000130: a0df 3e3d 8c2c 40bd 95da 793d df65 9b3d
00000140: 6eed b0ba 2649 923d b2a8 3cbc 0a1f 853d
00000150: 7bcd 4cbd 6e16 b83d 738b b83d 92e5 83bc
00000160: 994d 963d 2772 6b3d bd6f e4bc ff4a 84bd
00000170: 8fea 9b3d 50f6 55bd d05e a1bc 5f45 38bd
00000180: 472b 85bd 5f8b 3bbd 9c84 43bd 2cac dfbc
00000190: 75a4 1ebd 93b2 1bbd 9b9e 8fbc 8b76 9ebc
000001a0: 327c 933d e512 a93d 55b3 62bd d78e 9dbc
000001b0: 9d7c 23bd aac5 94bd 9cb8 0d3d e8f5 833d
000001c0: 4873 6bbd f7ad 953d adc7 683d 0686 b43d
000001d0: b84c 9fbc e6f9 87bc 7401 1abd 98e4 15bd
000001e0: 014b 43bd 9f0a 843d e7b9 b13d 528f 3dbd
000001f0: 73e8 80bc 6544 58bd 6f76 d4bb 4de0 893d
00000200: 262c 46bd 2d95 babc be0e bdbc 42c4 2fbd
00000210: a336 62bd 77cc 6bbd 2ab4 a2bd 61a9 84bd
00000220: 0782 773d 96b2 873d bd58 423d efc1 623d
00000230: 2cd5 a13d 989a 5bbd 1c8a 0cbd 30ac 8f3d
00000240: 78e2 38bd baf2 a13d abf6 0ebd 25b6 2abd
00000250: 59ab 933d e5de 9d3d df39 a53d 0da4 c73d
00000260: 468d 0dbd 1604 26bd cb86 33bd 44ef 0dbd
00000270: a262 22bd e7e9 8dbc 343b 9f3d 0118 f1bc
00000280: e849 d7bc 1b36 523c 47b1 983d cdf4 80bd
00000290: 44ce 7c3d a16d 31bd 0c59 f8bb d4af 92bb
000002a0: 34ce 7d3d dc64 acbc 0eb2 3bbd 64dd 453d
000002b0: 330f 933d 3f9e 0abd 7e53 eebc cc50 883d
000002c0: 0ac6 ac3d ee35 913d fb61 963d 167b 59bd
000002d0: 2803 a53d d525 3f3d dbd4 b03d b36b a03d
000002e0: b0c2 1fbc e772 4cbd 6292 34bd d40c d2bc
000002f0: 56f0 833d b9d6 dfbc 5e8f a43d 6d92 4cbd
00000300: 110e 9c3d 75b9 3d3d 9cb4 55bc c0ea a83d
00000310: f6be b53d 61f8 ae3b 08cb 8f3d f5e7 b43d
00000320: 7f88 0cbd 76b8 a93d a2aa 82bd 28a2 5abd
00000330: fcd2 143d 502d 94bd 4f84 813d 621a ffbc
00000340: c7bd 93bd 5626 97bd 4605 23bd 0aea 38bd
00000350: 5321 56bd b44c b83d f857 b73d 1740 a33d
00000360: 6edf 39bd 958f 843d bd98 0dbd 8b1d a83d
00000370: 1f84 ae3d 14c5 c1bc 7302 b43d e065 ba3d
00000380: cf67 a43d e2b6 24bd 6064 84bd 26af 72bd
00000390: 00c6 b43d 42ca 50bd 9404 8e3d d943 183d
000003a0: f532 ab3c 57de 803d 9600 ebbc dcc6 973d
000003b0: 48cc 953d 0567 753d 8911 953d ac75 6f3d
000003c0: f2d4 4f3d bcf2 713d 725d 983d f660 803d
000003d0: c394 b03d 9291 5a3d f9f6 9f3d d7b0 8e3d
000003e0: f4a7 573d bc48 43bd a49d 023a 9a30 5ebd
000003f0: 4d56 a23d 5524 42bd 161f 363d b88d 213d
0.06367619 -0.03195228 0.054506425 -0.033512797 -0.010050313 0.082104005 0.043325774 -0.037833564
0.07021858 0.05920722 0.07880745 0.04886922 0.057994034 0.058438852 0.051684633 -0.041715786
0.03480002 0.04403749 0.079235286 -0.02909504 -0.023192953 0.07963998 0.057644784 0.053927064
-0.034133453 0.07532964 -0.037888102 -0.013181849 0.07675617 0.05147705 -0.026673961 -0.029202808
-0.03350901 0.076764874 0.07102283 -0.035793982 -0.03386424 0.061011665 0.07053057 -0.0538199
0.0108719 0.087784454 -0.06970916 0.056634042 -0.056181364 0.067361936 0.08738441 -0.067878805
0.07764339 0.08069071 -0.033304762 -0.045202088 -0.018014353 -0.04425628 -0.03647991 0.06201735
0.06528479 0.06706078 -0.033809517 -0.05177794 0.08142508 -0.052024204 -0.038459253 0.071221046
-0.04426933 -0.08198082 -0.024066208 -0.043584928 0.07903904 0.058101457 0.042354748 -0.057657722
0.07069748 -0.021248791 0.08543676 0.017398732 0.046599984 -0.046917483 0.06099947 0.0758779
-0.0013498494 0.07142858 -0.0115148295 0.06500061 -0.05000065 0.08988653 0.09010973 -0.016100679
0.07339019 0.05748191 -0.027885312 -0.06459617 0.07613098 -0.052236855 -0.01969853 -0.044988032
-0.06502395 -0.04578721 -0.047733888 -0.027303778 -0.038731057 -0.0380121 -0.017531684 -0.019343635
0.07201423 0.08255557 -0.055346806 -0.01923315 -0.039913762 -0.07264264 0.034599885 0.06443387
-0.057482988 0.07308572 0.05683105 0.088146254 -0.019445762 -0.016598653 -0.037599042 -0.036594957
-0.04767895 0.06447338 0.08678036 -0.04627926 -0.01573584 -0.0527996 -0.006483845 0.06732235
-0.048381947 -0.02277621 -0.023078319 -0.042911775 -0.055227887 -0.05756804 -0.0794452 -0.06477619
0.060426738 0.066258594 0.04744791 0.05536073 0.079019874 -0.05361423 -0.0343114 0.07015264
-0.045137852 0.079076245 -0.03490321 -0.041677613 0.07210416 0.077085294 0.08067679 0.09748087
-0.034558557 -0.04053124 -0.04382972 -0.03465201 -0.039644845 -0.017323447 0.07774964 -0.029430391
-0.026280358 0.012830283 0.07455688 -0.06296692 0.061720148 -0.04331744 -0.0075789746 -0.0044765268
0.06196423 -0.021044187 -0.045824103 0.048306838 0.071806334 -0.03384232 -0.029092547 0.06656036
0.084362105 0.070903644 0.07342907 -0.0530959 0.08057243 0.04666694 0.08634349 0.07833042
-0.009751007 -0.049914267 -0.044084914 -0.025640883 0.06442325 -0.027324067 0.080351576 -0.04994433
0.076198705 0.046319444 -0.013043549 0.082479 0.088743135 0.0053396677 0.07021147 0.08833305
-0.03430986 0.08287136 -0.06380202 -0.0533773 0.036334023 -0.07235205 0.06324064 -0.03114051
-0.072139315 -0.07380359 -0.03979995 -0.045145072 -0.052277874 0.08999005 0.089523256 0.079712085
-0.045379095 0.064726986 -0.03456949 0.0820876 0.08521294 -0.023653544 0.0878953 0.09101462
0.080276124 -0.040213473 -0.064644575 -0.059249066 0.08826828 -0.050974138 0.06934467 0.03717408
0.020898322 0.06292408 -0.028686803 0.07410976 0.07314354 0.0599127 0.07278735 0.05846183
0.05074019 0.05906938 0.07439698 0.06268494 0.08622124 0.053361483 0.07810778 0.06967323
0.052650407 -0.047676787 0.0004982597 -0.05424557 0.07926617 -0.04739793 0.04446324 0.039441794

fc2_value.weight f4 [1, 512]
00000000: c87d 073e 604d fdbd dc3a bb3d 8e51 9fbd
00000010: fb7e cabd df72 b33c 5678 2f3e f7d9 8fbd
00000020: 70ef cf3d 8129 993d 824f 813d a211 8f3d
00000030: b8a3 d73d 25b7 103e 5008 043e 57e1 81bd
00000040: 3c56 dd3c 0dd9 9e3d 8ab9 373d 765a 77ba
00000050: 6b6e 6abd b407 523d 02c0 073e 6bae 073e
00000060: 814f b6bd 9d13 7a3d 9b9a 70bd 2d7d d5bd
00000070: 2e18 a03d 593c f43c 5cb7 b7bd 1b6a 1dbd
00000080: dcdc 8abd c406 a83d 84ed 1d3d 30b0 a3bd
00000090: 6702 d2bd cd86 e13d 8283 db3d 2c14 78bd
000000a0: 0806 d83c 4ba1 803d 8c40 4dbd f0de 953d
000000b0: 14aa 58bd 3a91 e03d f0e9 6d3d f25b 88bd
000000c0: fbf6 8e3d e28a 9e3d 218a 83bc 8ca5 82bd
000000d0: 45eb d4bd 927a 79bc ffe7 a3bd 9a91 893d
000000e0: 6c11 a53d 0eda bb3d abb9 d3bc db04 cabc
000000f0: f4a1 ba3d 5bbe 01bc b36d 96bd 5771 6f3d
00000100: 49f9 aebd 0f1b a6bd 3820 c5bd 9470 5abc
00000110: 6c09 b03d 2710 663d 10c9 f13d a5c6 0abe
00000120: 8790 593d 2271 94bd 931f 993d 2325 cdbd
00000130: 5b84 ac3d 707c 22bd 021b f03d d62e c43d
00000140: bfe8 0dbe 83b0 c73d 1dce e5bd 0f6c 063e
00000150: c66e 22bd c2b4 e73c e394 c93d 7fb4 11bd
00000160: 61d0 ee3d 7250 ad3d 7318 2fbc af4a c7bd
00000170: 09d7 7a3d 7aa5 8abd babf 89bd f208 8fbd
00000180: d349 57bd cad1 a8bc d719 32bd 599b 8bbd
00000190: 4c3d b8bd c0e7 69bd 33ab aabd c7a7 b7bd
000001a0: df17 923d 191c 123d e3da 54bd db2b b6bd
000001b0: 29ed 93bd 2cc1 b3bd 7c6d 703d 30f7 e43d
000001c0: 0ce7 06bc 4479 083d 083a d23d 56d4 b23d
000001d0: 81d7 36be a9e4 52bd b9c0 0cbd e1bc 8fbd
000001e0: eb99 23bd 2a11 b93d 2ccf 9f3d 0b17 b6bd
000001f0: 2d49 b9bd 5761 a7bd b142 a7bd b78e 713d
00000200: c156 a0bd e51a c1bd 1398 e5bd 880f 2cbc
00000210: a299 04bd 71ff 81bd c80d a4bd 12a3 d0bd
00000220: 18c0 e43d 996c 823d 1df8 8f3d c3b1 ec3d
00000230: 14ad a53d d674 3fbd 83c4 85bd 8489 b53d
00000240: 642e 22bd c29d 313d d34d 59bd 19cb 95bd
00000250: 18b8 913d 1e6e 4e3d 5568 9f3d 4135 6c3d
00000260: 9bc8 00bd 5ba8 2cbe 9f67 8a3c e1d5 b0bd
00000270: 29b9 97bd 45bd a3bd 34fa 943d 286b afbd
00000280: 9438 2ebd 4e59 d1bd 5f8f b83d 792a 98bd
00000290: 593f fc3d 2820 03bd f812 17be ec72 50bd
000002a0: ebaf 9f3d 6362 a4bd a00c 76bd 3256 e73d
000002b0: b32b 3c3d 5e28 c8bd 0838 53bd 4333 ec3d
000002c0: a432 623d 8733 5f3d e237 8e3d ed92 babd
000002d0: 8037 063e 7e7c 0c3e b9b3 983d 643d 443d
000002e0: e280 fbbd 8f01 a0bd 678f a6bd c7e8 5cbd
000002f0: 7d12 8c3d e0b1 a9bd 662c 9a3d 5744 aabd
00000300: 441c 9b3d 6e3c 8f3d 6623 4abe 5d94 ae3d
00000310: 566e fe3d 3e39 a13c 2710 a53d 058c bd3c
00000320: 14f3 c1bd dcf0 ec3d 0e26 80bd b010 3cbd
00000330: 168c 923d b7d7 89bd 6474 a13d 7354 debd
00000340: 0dfb ebbc f527 83bc 2ca4 c3bd e92d d5bd
00000350: da06 58bc a4eb 963d 124e 9b3c 1a88 a03d
00000360: f627 e1bc 4004 c23d 24da 9bbc d161 0c3d
00000370: 7169 043d 4d84 4fbd 5e56 153d 7583 413d
00000380: 070b 5c3d 98c2 55bd 6219 dfbd 21cf e5bb
00000390: 58d1 f53d 38b8 9abd cb71 b83d d169 6f3c
000003a0: 9239 ebbd 41b8 ed3d 795f 20bd ab25 b43d
000003b0: b084 ba3d c74b d43d ca93 db3d b4b3 a33d
000003c0: 0b25 823d 3680 b43d bb30 8c3d beb7 bf3d
000003d0: 3de0 883d 0794 fe3c f28f d83d c770 c33d
000003e0: 2039 f23d 751d 68bd a257 893c 8148 97bd
000003f0: ed15 b03d 73e5 a4bd 6807 cd3d 7179 c43d
0.13231575 -0.12368274 0.09142086 -0.07779227 -0.09887501 0.02190536 0.17135748 -0.07023995
0.10153091 0.07478619 0.06313993 0.06985785 0.10529274 0.14132364 0.12893796 -0.06341808
0.027018659 0.07756243 0.04485468 -0.0009435782 -0.05723421 0.051276878 0.13256839 0.13250129
-0.08901883 0.06105386 -0.058741193 -0.10424266 0.07817112 0.029813932 -0.0897052 -0.03843127
-0.06780407 0.082044154 0.03855659 -0.079925895 -0.102543645 0.11012039 0.107184425 -0.060566112
0.026370063 0.06280764 -0.050110385 0.073179126 -0.052896574 0.109652 0.05808443 -0.06658162
0.069807015 0.077413335 -0.016057076 -0.06379232 -0.103964366 -0.015226977 -0.08003234 0.067172244
0.080599636 0.0917245 -0.02584537 -0.024660518 0.09112921 -0.007918919 -0.07345142 0.0584577
-0.08543641 -0.0811063 -0.09625286 -0.013332505 0.08595547 0.056167748 0.11805928 -0.1355234
0.053116348 -0.07248141 0.074767254 -0.10016849 0.08423682 -0.039669454 0.11723901 0.09579246
-0.13858317 0.09750464 -0.112209536 0.13127159 -0.039656423 0.028284434 0.09842851 -0.035572525
0.11660839 0.08462609 -0.0106869815 -0.09731042 0.06124023 -0.067698434 -0.06726022 -0.06984128
-0.05256064 -0.020607848 -0.043481674 -0.068167396 -0.089960665 -0.05710578 -0.08333435 -0.08967548
0.07133459 0.035671327 -0.05196656 -0.088950835 -0.07222969 -0.08777079 0.058698162 0.1117996
-0.008233797 0.033318773 0.10264975 0.08731906 -0.17855646 -0.0514876 -0.034363482 -0.07018448
-0.03994171 0.09036477 0.07803187 -0.08891114 -0.0904716 -0.08172863 -0.08167017 0.058973994
-0.07829047 -0.09428958 -0.112106465 -0.01050175 -0.03237308 -0.0634755 -0.08010441 -0.10187353
0.111694515 0.063683696 0.07029746 0.11557343 0.08089653 -0.046742283 -0.06531622 0.0886412
-0.039595023 0.04336334 -0.053052735 -0.073141284 0.07115191 0.050397985 0.07783572 0.057667974
-0.031441312 -0.16861098 0.016895114 -0.08634544 -0.07408363 -0.07995085 0.07274285 -0.0856536
-0.042534426 -0.10222112 0.09011721 -0.07429976 0.1231677 -0.03201309 -0.1475333 -0.050890848
0.077972256 -0.08026578 -0.060070634 0.11295737 0.045940112 -0.097733244 -0.051567107 0.11533215
0.055224076 0.0544925 0.069442526 -0.09110055 0.13107109 0.13719365 0.074561544 0.04791011
-0.12280442 -0.07812797 -0.081328206 -0.05393293 0.06839464 -0.0828588 0.075279996 -0.08313816
0.075737506 0.06993948 -0.19740066 0.08524392 0.12423389 0.019680616 0.080597214 0.023138056
-0.094701916 0.11569378 -0.06257258 -0.045914352 0.071556255 -0.067305975 0.07883528 -0.10855951
-0.028806234 -0.016010264 -0.09552798 -0.10409147 -0.013185227 0.07369164 0.018958125 0.07838459
-0.027484875 0.09473467 -0.019024916 0.034272972 0.03232712 -0.05066328 0.03645932 0.047244508
0.053721454 -0.052187532 -0.10893513 -0.007013217 0.1200282 -0.07554668 0.09006079 0.014612631
-0.1148559 0.11607409 -0.03915355 0.08796247 0.091073394 0.10366016 0.10721548 0.0799326
0.06354722 0.08813517 0.06845232 0.09361218 0.06683395 0.031076444 0.105743304 0.09542995
0.11827302 -0.056668717 0.01676542 -0.07386876 0.08597932 -0.080515765 0.10011178 0.095934756

fc1_advantage.weight f4 [512, 64]
00000000: 1e83 40bd de34 c0bd d585 313e 109e 783d
00000010: d979 c23d eb78 babd 4f70 fabb 134b 80bd
00000020: c3b9 cd3d e856 9d3d c487 6fbd 0593 9ebd
00000030: 3841 c43d 4e9b 163c db87 bc3c 8712 963d
00000040: 4db3 45bc a7df be3d 7154 92bc d517 31bd
00000050: 7faa 07be d9ea 06bd a54b d73d e93d 9c3d
00000060: 2ad9 553d 2ed7 a53d 048a dfbd b521 a33d
00000070: 6df4 b23d 33ce cfbd 0c36 02be 7104 ba3b
00000080: 60fe b239 2fed ca3c 21d1 773d 6849 0e3e
00000090: 6672 b2bc 8797 88bd e386 9d3d f3ba 873c
000000a0: 032c 883d 3dcb 84bc 8db5 04bd 5243 93bb
000000b0: 07f6 00bd 0ea7 063c ea00 083d 9346 953d
000000c0: f522 6ebd ffe5 bc3d eb55 cf3d 76f5 4e3d
000000d0: 8fb1 853c da8e b63d bb49 76bc aa1a a13d
000000e0: ce0c 12bd 7377 f1bd d955 aa3b 048a 0ebd
000000f0: ef6b a13d 956f 35bd 86ab db3d fc3d cdbd
00000100: cba6 b2bd b765 55bc 9baf 6239 410c f6bc
00000110: 3891 c93d 04e6 013d b9be 0e3e 6825 8e3d
00000120: e750 5d3c b1dc f13c 2db2 63bd f9df edbc
00000130: 5ae5 d1bc efd7 b73d 011b 92bd 8731 d53d
00000140: 6084 84bd e893 82bc 3159 c13b 5431 ba3d
00000150: 3364 7f3b c9e2 d03c 50ad dabd 9932 7abd
00000160: fe0f 043d 645f bcbd 5adb 833d 9de9 923d
00000170: 1a8a 48bd 2e69 953c 5ecc 2f3d 9e65 ac3d
00000180: 2dad d0bd 30e9 22be 0c17 733d 1099 24bd
00000190: 8e30 dbbd e18e 0e3d 561b fe3c 05e5 ddba
000001a0: eedb 743c bccf 93bc 1d88 11bd 3e25 e23b
000001b0: d9c4 43bd b1b6 ecbb 0015 acbc c807 273a
000001c0: 13f0 5b3d 9b5e 0cbd 0737 97bc 69e9 38bd
000001d0: 54d5 9ebd cd08 133d b7f5 e2bc 0d2b 85bd
000001e0: 1af2 4abd 1940 9339 435c 85bc 1338 c3bd
000001f0: 0fa8 bf3c d58a bbbb 8479 103d d6f3 6a3d
00000200: 3b7a e6bd 881b a63c 162d 923d 03c6 6bbd
00000210: 9046 2c3b acbe 513d ec8f 02bd ee7d 5fbd
00000220: 724a 913d 4681 32bd d53c bfbd 1f0a 6abd
00000230: d6c1 8cbc 783c d03d 56f2 873d 055c e03b
00000240: 7fcf 853d 6154 c03d bcf5 8dbd 0360 5abd
00000250: 86cd 02be d221 98bc 315c b33d c274 88bd
00000260: 87d5 3dbc f120 7c3d a456 2dbd 1400 40bd
00000270: 486d d3bd 8f91 adbd 56de 31bc 4dd0 bcbb
00000280: 46ac eb3d 2073 5cbd 9700 8e3c 3e5e ddbd
00000290: 9fe2 c23d eff4 ecbc 0949 4ebd 6855 31bd
000002a0: 0059 07bd ce89 fc3c 01f2 233d eefb a53d
000002b0: 42da f6bd e9ab babc b6be a13c 27e0 8fba
000002c0: bf8f 87bb 47c9 3cbd cddc 9c3d b983 66bd
000002d0: 94ec abbd 0863 883d 0abd 1ebd 39bf 00be
000002e0: 89c8 0fbc 901e 293c 8448 293c ddea be3c
000002f0: 2bdd a7bd e46a 43bd f4eb e0bd ecf5 423d
00000300: 6d95 da3c 9590 4cbd a86f 3dbd a5a4 9cbc
00000310: 1bdb b4bd 70c1 fe3d 24ae 7c3d d750 06bd
00000320: e9b8 3b3c 8904 1a3d 86e1 4d3d 2632 353c
00000330: 28a0 023e 647f 453d 2b38 85bd 2727 7a3d
00000340: 003d 833d 009e 7f3b 0598 953d 5e38 6abd
00000350: bad3 3b3d 61bc 8bbc 2cad f8bd 73ce 74bd
00000360: 795e 0ebe 13ef e33d 32b0 30bc eecd cbbd
00000370: 2f1e 1a3d 78c1 ba3d 4c61 c2bc 6de8 d7bd
00000380: 0a9e 2fbd 293c 21bd 4461 bd3d e973 67bd
00000390: b9c6 79bd c933 833d f091 323d 1191 86bd
000003a0: 04ca d2bb a5ad 0f3c c319 80bc 5427 95bd
000003b0: db40 913d 4250 15bd 9a47 8fbd 794a 343d
000003c0: 352a f83d 1a13 613d 013f 923d 4495 1fbc
000003d0: e50c b73c f414 5d3d 47e1 873d 55d8 8d3d
000003e0: af54 e73b e68f 9ebd 99ad 0abe 9172 94bc
000003f0: d213 50bd 471f d6bc 64f0 e33d d1a8 813d
-0.047000043 -0.093850836 0.17336209 0.060697615 0.09495897 -0.091050945 -0.0076427828 -0.06264319
0.10045197 0.07682592 -0.058479086 -0.077428855 0.09582752 0.009192301 0.023014 0.073277526
-0.012066674 0.09320002 -0.01786253 -0.04323562 -0.13248633 -0.032938812 0.10512475 0.07628996
0.052209057 0.08097683 -0.10914996 0.079654135 0.08738027 -0.10146751 -0.1271593 0.005676799
0.0003414033 0.024771301 0.060502175 0.1389519 -0.021783065 -0.066695265 0.07691743 0.016568637
0.066490196 -0.016210193 -0.032399703 -0.004494109 -0.03148463 0.00821854 0.033203997 0.072888516
-0.058138806 0.09223556 0.101238094 0.05052706 0.016320018 0.089139655 -0.015032227 0.07866414
-0.035656743 -0.11790361 0.005198222 -0.03479959 0.07881915 -0.044295866 0.10726075 -0.10021588
-0.087232195 -0.013024739 0.00021618458 -0.03003514 0.098421514 0.0317135 0.13939942 0.069407284
0.013508058 0.02952418 -0.055589844 -0.029037463 -0.025622059 0.08976733 -0.07134057 0.10409837
-0.06470561 -0.015939668 0.005900525 0.0909144 0.0038969635 0.025498765 -0.10677588 -0.06108341
0.032241814 -0.09197882 0.06438322 0.071734644 -0.04895983 0.01823863 0.04291951 0.084178194
-0.10189281 -0.15909266 0.05934815 -0.040185034 -0.107026204 0.03480423 0.031018894 -0.0016929215
0.014945013 -0.018043391 -0.0355302 0.0069014123 -0.04779515 -0.007223927 -0.021006107 0.0006371704
0.05369575 -0.03426991 -0.018458856 -0.045144472 -0.07755533 0.035897065 -0.027705057 -0.06502352
-0.049547292 0.0002808578 -0.016279345 -0.0953218 0.023395566 -0.005723337 0.035272136 0.057361446
-0.11253782 0.0202768 0.07137506 -0.057561886 0.0026287176 0.05120723 -0.031875536 -0.054563455
0.070942774 -0.043580316 -0.09337775 -0.05713856 -0.017182272 0.101677835 0.06638019 0.006846907
0.06533717 0.09391094 -0.06931636 -0.05331422 -0.12773713 -0.018570814 0.087578185 -0.06662895
-0.011586553 0.061554853 -0.042318955 -0.046875075 -0.10323578 -0.08475029 -0.010856232 -0.005762136
0.11507468 -0.05382073 0.017334266 -0.10808991 0.09515881 -0.028925387 -0.05036262 -0.04329434
-0.03304386 0.03082743 0.040025715 0.081046924 -0.12053348 -0.022787051 0.019744258 -0.0010976837
-0.004137009 -0.04609039 0.07659302 -0.056277964 -0.08394733 0.06659514 -0.0387545 -0.12572946
-0.008775839 0.010322228 0.0103322305 0.02330535 -0.08196481 -0.04770936 -0.109825045 0.04759781
0.02668258 -0.04994257 -0.04624906 -0.019121477 -0.088308536 0.12439239 0.06168951 -0.03279194
0.01145766 0.03760198 0.050263904 0.01105932 0.12756407 0.048217192 -0.06504854 0.061072495
0.06408119 0.0039004087 0.07304386 -0.057182662 0.045856215 -0.0170576 -0.12142405 -0.059767198
-0.13903226 0.11129584 -0.010784196 -0.09951387 0.03762644 0.091189325 -0.023728035 -0.105423786
-0.042875327 -0.039364014 0.092470676 -0.056507025 -0.060980532 0.064063616 0.043596208 -0.06570638
-0.0064327735 0.008769427 -0.015637284 -0.07282892 0.07092448 -0.036453493 -0.06996079 0.044016335
0.12117425 0.054949857 0.07140923 -0.009740178 0.022345016 0.05397506 0.06634765 0.06926028
0.0070596556 -0.0774229 -0.13542785 -0.018121036 -0.050800152 -0.026137961 0.11129835 0.06331027

fc1_advantage.bias f4 [512]
00000000: a86c 473b 1328 213d 12cd 88bc 0e1c 583c
00000010: cfab 983b 70f6 bb3c d8e6 433a 647c 143c
00000020: 5f3f 783c 9501 11bd 4a20 873b db4d 453c
00000030: 0097 193d 40cf 9f3c 4308 e9bc d62a 2d3c
00000040: 44d4 cebb d8f4 513b 255a fe3c 8188 72bc
00000050: daaf 95bc 356d e33c 8d0e a1bb 35a9 d03a
00000060: e308 3ebd 6fa1 e4bb 544e 06bd ecaa e63c
00000070: b83a 683b d106 aebb fb4c 083c 0c33 393c
00000080: 97de 753b eeaf 2fbd 8416 523c ef22 c43a
00000090: 73ea f33b 9556 debb c4f0 ec3c b166 b63c
000000a0: 7208 adbb d41a 54bb 5a86 b53b e2f3 d13c
000000b0: d1de ef3c df77 523d 5bae 8c3c c631 b33c
000000c0: 0126 033d 7a05 79bb c153 bbba 438e 043c
000000d0: 20a6 96bb 2c7a e2bc 4d88 c93c e711 ef3c
000000e0: 158f 23bc 0f52 0b3d be4d 053d 347b a83b
000000f0: beb9 803c dd5e b83c 5c46 033d 178e 8b3c
00000100: 3064 563c becb 1e3d 050e a5bc 314d e43c
00000110: 126a b53a ffe0 313d 3233 bf3c bb7a 243c
00000120: 380b 193d ce5d a43c 0dcd 533d 704c d8bb
00000130: 5014 473d ce1b 0d3d c09f d03c 2b60 e43b
00000140: ff8d 273c a5a2 72ba 394c ba3c 5e3f 42bc
00000150: bacd 173a b4d4 adbc 0238 8c3c 436f 173b
00000160: 829b a33c 8a7f 103d a78f 44bc f001 6d3c
00000170: f33a d5bc 81ab 153d f028 743c d9ee 57bc
00000180: 5e69 103d 1f35 c73c d01e 98ba a9c0 cbbb
00000190: 9664 293d 6452 203b 90a9 fb3c 0de5 04bc
000001a0: f076 eb3c 7431 54ba bd44 dcbb 9618 ff3c
000001b0: c748 283d a6ab 07ba 32d4 a1bc 6042 c73c
000001c0: e892 e43a 3a12 a63c 2691 ed3c d06a c1bc
000001d0: 4d9b c9bc be6c f7bc a84e 433d 753f 28bc
000001e0: 03f8 ba3c 9650 0a3d cc61 223c 7491 a53b
000001f0: 19dc 373d 6ca2 d939 2dba d9bb 1988 1e3c
00000200: 8a15 d03c c473 3d3d 8b06 d73c 937b a3bb
00000210: 5c07 8f3c a3de 6f3c e747 64bc 71ee ca3c
00000220: 483b 993c 8514 eb3b 69d5 c53b dce6 9abb
00000230: 5f95 093d d91b 563c 46d2 4f3c f189 193d
00000240: 513f debb 60c4 863c 9ae8 6dbc c795 79bc
00000250: 93dd 1c3c c435 9abb 94a5 053d ef77 143d
00000260: 5b6f 3f3d 1c49 35bb 53c6 b63c 0bb0 993c
00000270: 4acd a33c 888a 84bb f093 3935 e399 8b3c
00000280: a843 12bc 1c68 2c3d 7357 85bc e08d 043a
00000290: e081 26bb 1ff8 90ba 61f7 06bd 78e4 b7bc
000002a0: afae e53c 1782 a83c 6a03 fabc 66c1 25bc
000002b0: 04b3 843c 82cc 053d 3fe8 1b3c e205 a5bc
000002c0: edec bcbc 91ab d03c d79d b03c 4ebc 2bbd
000002d0: eff8 103d 57d3 60ba b332 b1bc 35a0 4f3c
000002e0: 0599 00bc 78f4 cc3c 12df 7a3c 99e2 33bc
000002f0: 9ed8 80bb 7864 273d fcb9 cebc 6ac7 193c
00000300: 45be 703d e4e7 bc3c 0b4d 6a3c 16fa 183c
00000310: 8ed6 de3b b951 443b 6597 293b 9072 0b3d
00000320: 4630 c1bc 63f1 7b3c 287b 28bb 9b37 2d3c
00000330: a62a 23bb 572d 043d 79fb 493c c93e 97b9
00000340: 6691 f93b f960 133c 7b96 40bc 088f 1cbc
00000350: 8964 873c cd29 133c 6742 9c3c 3f37 95bc
00000360: 780b 383c 9d04 813c d78f d9bb a030 923b
00000370: 9565 2b3c a154 583a 4ca0 8fba dff4 a0bb
00000380: d010 f5bb 6cd8 b23c 038c 8ebc 32b6 363b
00000390: 7a38 513c 143f 053c 0a68 7e3c 5988 8bbc
000003a0: 3129 f23c 708e 6d3c 2965 123c bd98 323c
000003b0: 3fa7 7f3c 6bd8 98bb 2fb7 0bbd e42e 353d
000003c0: 99c3 813b 173c 2e3c 71bc 263c c4d5 143c
000003d0: f7a2 be3a 915c 513d 48cb 753c bbdd dbbc
000003e0: 1b5e 123d cc69 1e3c 096b 103d 786a 733c
000003f0: fc5b f93c 0e1f 523c 3158 bcbc b581 f53c
0.0030429754 0.03934486 -0.016699348 0.0131902825 0.004659153 0.022944659 0.0007473058 0.00906286
0.015151828 -0.0354019 0.004123722 0.012042488 0.03749752 0.019508004 -0.028446322 0.010569295
-0.006311925 0.0032036807 0.031048844 -0.014803053 -0.01827233 0.027762035 -0.0049150647 0.0015919568
-0.046395194 -0.006977252 -0.032789543 0.028157674 0.003543539 -0.005310871 0.008319135 0.011303674
0.0037516707 -0.04289239 0.012822751 0.0014964024 0.00744372 -0.0067852237 0.0289234 0.022265764
-0.005280548 -0.0032364624 0.0055396976 0.025628988 0.029281052 0.05138385 0.017172983 0.02187432
0.032018665 -0.003799765 -0.0014291928 0.008090558 -0.0045974404 -0.027646147 0.024601126 0.029183341
-0.009982844 0.034013804 0.032544844 0.00514164 0.015713569 0.022506172 0.03204952 0.017035527
0.01308541 0.038768522 -0.020148287 0.027868839 0.0013840816 0.043427464 0.023339842 0.010039027
0.037364215 0.02006426 0.051709224 -0.006600909 0.048603356 0.034450345 0.0254668 0.006969472
0.010226726 -0.00092558033 0.022741424 -0.011855928 0.00057908485 -0.021219589 0.01711655 0.0023107089
0.019971613 0.03527788 -0.01199714 0.014465794 -0.026029086 0.036540512 0.014902338 -0.013179504
0.035256736 0.024317322 -0.0011605863 -0.0062180352 0.04135569 0.002446317 0.030720502 -0.008111251
0.028743237 -0.00080945273 -0.0067220614 0.031139653 0.04108503 -0.0005175419 -0.019754503 0.024323642
0.0017438801 0.020272363 0.028999876 -0.023610502 -0.024610186 -0.03020322 0.047682434 -0.010269036
0.02282334 0.03376826 0.009911012 0.0050527398 0.044887636 0.0004151048 -0.0066445083 0.009676003
0.025400896 0.04625298 0.026248237 -0.0049890964 0.017459564 0.014640483 -0.0139331585 0.0247719
0.018705025 0.007174077 0.0060374034 -0.0047272276 0.033589717 0.013068163 0.01268441 0.037485067
-0.0067824502 0.01645106 -0.014520789 -0.015233464 0.009574312 -0.0047061164 0.03262861 0.03624719
0.046737056 -0.0027661985 0.022311365 0.018760702 0.01999535 -0.0040448345 6.913315e-07 0.017041152
-0.008927263 0.042091474 -0.01627705 0.00050565414 -0.0025407001 -0.0011060274 -0.032950763 -0.02244781
0.028037397 0.020569844 -0.030519206 -0.010116911 0.016198643 0.032665737 0.009515821 -0.020144407
-0.023062194 0.025472434 0.021559639 -0.04192763 0.03539365 -0.0008576414 -0.02163062 0.012672474
-0.007848983 0.025018916 0.015311973 -0.010979318 -0.003932073 0.0408673 -0.025235169 0.009385923
0.058775205 0.023059793 0.014300595 0.009336969 0.0068004793 0.0029955937 0.0025877592 0.034044802
-0.023582589 0.015377375 -0.0025708172 0.010572339 -0.0024897247 0.032269802 0.012328022 -0.00028847743
0.00761621 0.008995288 -0.011754627 -0.009555586 0.016527431 0.008982134 0.019074632 -0.01821482
0.011233203 0.01574927 -0.0066394615 0.004461363 0.010461231 0.0008252357 -0.0010957806 -0.0049120034
-0.007478811 0.021831714 -0.017400747 0.0027879593 0.012769813 0.008132715 0.0155277345 -0.017032789
0.029560657 0.014499292 0.008935251 0.010900673 0.015603839 -0.004664471 -0.034110244 0.04423417
0.0039600846 0.010634444 0.010176764 0.009084169 0.0014544417 0.05111367 0.015002079 -0.026839128
0.035734277 0.009668779 0.035258327 0.014856927 0.03043937 0.012824787 -0.022991272 0.029969076
