results/DDQN_UER_checkpoint.pth (torch_old, 54660 bytes, 6 tensors)

hidden_layers.0.weight f4 [128, 37]
000000 ff a4 2b bd 9f 55 89 bd ba 6c bd bd 9f c3 8d bd
       -0.0419054 -0.06705784 -0.092492536 -0.069220774
000010 41 1b be bd 4b 76 41 3e 06 1f 5e bd 93 a4 7d 3d
       -0.09282542 0.18892781 -0.054228805 0.06192453
000020 0a ab 8b bb 26 43 a4 be ce ee 9d 3d 82 3d 37 bc
       -0.004262333 -0.3208248 0.07711564 -0.011184098
000030 43 b2 95 3d e3 5d 68 3d ff a9 b9 bb 5a f6 00 3d
       0.07309391 0.056730162 -0.005666017 0.03148494
000040 f4 29 d3 3c ff 87 11 3d a0 f5 b7 bd 8e 32 a4 3d
       0.02577684 0.035530087 -0.08982396 0.08017455
000050 f5 ff be bd 51 52 99 3b 3a 4b 4d bd 59 59 b4 3c
       -0.09326164 0.0046790023 -0.05012057 0.02201526
000060 9d fb 96 3d 8b 85 ca 3d 9d eb 06 3c 95 f9 11 3c
       0.0737221 0.098887525 0.0082348855 0.008909603
000070 9d 1a 54 3c 2a ea 14 bd 5f 61 f8 3d e1 1c 48 3d
       0.012945798 -0.03635613 0.12127947 0.048855666
000080 e6 b3 a3 bd c5 40 0b bc 24 d1 60 be 0b 97 17 3c
       -0.07993297 -0.008499329 -0.21954781 0.00925232
000090 1a c6 1c bb d0 d7 44 3d 8e f8 a8 3c ab ad 49 bd
       -0.0023921789 0.048057377 0.020626333 -0.04923789
0000a0 84 84 20 bd d4 1c 71 bd ad d2 c8 be 08 44 fe bd
       -0.039188877 -0.058865383 -0.39223233 -0.1241532
0000b0 05 bd 13 3d 02 f9 aa bd 94 f8 f1 bd 02 ae d6 bd
       0.036068935 -0.08348276 -0.11814991 -0.10482408
0000c0 6d 35 31 be 5b 6d 01 be 3f af 10 bd 05 cb b1 3c
       -0.17305537 -0.12639372 -0.035323378 0.021703253
0000d0 7a 67 6c be 2c 48 cf 3d a5 3e fd 3d fc b4 e0 3c
       -0.23086348 0.101211876 0.12365464 0.02743005
0000e0 ab 16 e0 bd 50 5a 14 bd ca 73 8c 3d cc 80 74 bd
       -0.109418236 -0.03621894 0.068580225 -0.059693143
0000f0 84 d9 f5 bd ab 39 35 be 17 f7 12 be 2b 49 0d 3e
       -0.120043784 -0.1769778 -0.1435207 0.13797443
000100 61 f2 7a 3d 4d 25 3e be ef 80 51 be ec 09 a6 bd
       0.061266307 -0.18568917 -0.2045934 -0.08107361
000110 71 8f 15 3e 74 9d ea 3d 60 7e 29 3d b4 0e 10 be
       0.146055 0.11455813 0.041380286 -0.14068109
000120 e4 d2 b6 bc 49 20 8a 3b e9 96 3c be 57 a5 12 3e
       -0.022317357 0.0042152745 -0.18416943 0.14320885
000130 43 9b bd bd ba 77 9a bd 89 49 c7 bb 03 3b 05 3e
       -0.092581294 -0.07542367 -0.006081764 0.13010792
000140 71 38 2a be f0 bc b2 bd 4d b2 52 bd 06 09 23 be
       -0.16623093 -0.08727443 -0.051439572 -0.15921411
000150 27 6d 50 3d 7f 28 2a 3c d2 f9 40 be 63 7b 04 be
       0.050885346 0.010385632 -0.18845299 -0.12937693
000160 40 a8 85 3d d0 c1 06 be 1c 8c c7 bd 1e 6d a9 3d
       0.06526232 -0.13159871 -0.097435206 0.082727656
000170 a6 ab e8 bd b4 91 3c bd e7 2f ff bc e1 9d e1 bd
       -0.11360864 -0.04603739 -0.031150771 -0.11016441
000180 ac 9e 84 be bb d6 1d be 98 78 d2 bd 4a 5d 9f bb
       -0.25902307 -0.15413944 -0.10276908 -0.004863416
000190 64 4d 2d 3e c5 d5 35 be a4 cf 4f bd dc fe 58 be
       0.16924053 -0.17757328 -0.05073513 -0.21190971
0001a0 29 5c 8e bd e3 0f bc bd 41 fa c1 bd 4f 65 19 be
       -0.06951172 -0.09182718 -0.0947156 -0.14980052
0001b0 38 0a 20 be 1f 2a c2 bd 8e 72 1d bd c7 2e 7a bd
       -0.15628898 -0.0948069 -0.038439326 -0.061079767
0001c0 27 6b 48 bd ec 3f 45 bd 85 47 01 bd 85 43 c3 bc
       -0.048930313 -0.048156664 -0.031562347 -0.023835907
0001d0 12 5d 23 3d b1 c3 ce 3d e7 bc fa 3c 8f 08 30 3d
       0.03988368 0.10095919 0.030607654 0.042976912
0001e0 f4 e1 11 3d 45 a4 4f 3d 61 46 d4 3d a6 11 b3 3d
       0.035615876 0.05069377 0.10364986 0.087436005
0001f0 b0 3d 78 3d 0f f3 b3 3b 00 ed 94 3d c1 7d dd bc
       0.060605705 0.0054916213 0.07271767 -0.027037503
000200 68 93 7a 3d 87 2b 45 3c f9 ae 0a be 79 a5 2a 3e
       0.061175734 0.0120343035 -0.1354331 0.16664685
000210 2c b5 9e bd 27 2f c1 3d 8a 13 42 3d 14 b3 53 be
       -0.077493995 0.09432822 0.047381915 -0.20673782
000220 6f 7a 1e bb 8e 77 2d bd 30 70 8a bd e2 dc e0 bd
       -0.0024181863 -0.042350344 -0.06759679 -0.1097963
000230 61 43 01 be f5 18 ca 3b 42 7c 4f bd f7 50 9d bd
       -0.1262336 0.006167526 -0.05065561 -0.076814584
000240 19 46 1e bd d4 78 8a bd 04 9e 24 bc 47 ab 35 3b
       -0.03864107 -0.067613274 -0.0100474395 0.0027720497
000250 06 c5 0b be e2 f2 f8 bd dd 88 d1 bd 37 8b e2 bd
       -0.13649377 -0.12155701 -0.10231183 -0.110617094
000260 22 13 9c 3d 0e d8 b3 3d 17 bd 0d 3d 83 2f bb bd
       0.07620837 0.087814435 0.03460416 -0.091399215
000270 10 c9 2e be 98 47 60 be 3f 68 5a 3d 1d ad 04 3d
       -0.17068887 -0.21902311 0.053322073 0.032391656
000280 06 42 ca 3c 91 f9 c4 bc ea ee cb bd 71 3d 4c 3d
       0.024689686 -0.024044784 -0.099576786 0.049863283
000290 ad 23 c6 3d a8 50 ad 3d 7c 32 ef 3c 56 c6 f1 bd
       0.09674773 0.084626496 0.029198878 -0.11805408
0002a0 18 73 08 be 49 ba 12 be 7a ca d6 bd 34 84 cf bd
       -0.13325155 -0.14328875 -0.10487838 -0.101326376
0002b0 75 d1 80 3d f1 aa d4 bd 14 65 70 3d b1 c1 41 3d
       0.06289951 -0.10384167 0.058690146 0.04730386
0002c0 9d f7 a5 bd 87 d0 da 3d cf be 02 3e b5 c3 f6 3c
       -0.08103869 0.10684305 0.127681 0.030122617
0002d0 ca f9 26 3c 98 66 26 bd 57 a2 bd bd d8 ee 73 bd
       0.01019139 -0.040625185 -0.092594795 -0.05955395
0002e0 81 ff 4e 3c b2 b5 98 3d fa c9 52 bd dc a6 1d be
       0.012634159 0.07456531 -0.05146215 -0.15395683
0002f0 2f 4a 19 be 9f 76 23 3d e6 2e a8 bd be fc f9 bd
       -0.14969705 0.039908048 -0.0821207 -0.1220641
000300 cb 2c ba bd 38 c7 ac ba 92 7f 1f bd f6 3e 87 3d
       -0.09090575 -0.001318193 -0.03894002 0.06603806
000310 19 79 fd 3d e2 f9 b6 bc 40 8f 34 3d 12 45 07 be
       0.12376613 -0.02233595 0.044081926 -0.13209942
000320 3c 44 1a be e0 4d 6f bd 52 48 c1 ba 0e 0b 72 3d
       -0.15065092 -0.058423877 -0.0014746285 0.059092574
000330 9e 51 a0 3d bf 39 7c be 76 30 07 be b1 dd 3d bd
       0.07828067 -0.24631403 -0.1320208 -0.046354
000340 2a 9d cb 3d d2 ae 96 3d f8 77 e2 bd aa 31 14 be
       0.09942086 0.07357563 -0.110580385 -0.1447207
000350 16 9f 86 bd 29 fa bd bd 13 fb 8b bd 70 76 d4 3c
       -0.06573312 -0.0927623 -0.06834998 0.025935382
000360 3c c3 1f be 9a 75 73 be de a2 f3 bd 2e 0b 46 bd
       -0.1560182 -0.2377533 -0.11896299 -0.048350506
000370 40 d2 06 3e 12 23 97 bd f4 ba 91 bd 5a 29 48 bd
       0.13166142 -0.07379736 -0.071157366 -0.04886756
000380 60 a1 82 bd a1 85 1e bd 7f d7 eb 3c 5f 1a 70 be
       -0.06378436 -0.038701657 0.02878928 -0.2344756
000390 37 12 13 bc 1f 88 90 bc d5 4e e7 3c f1 2e 0c 3e
       -0.008976511 -0.017643033 0.028235832 0.13689782
0003a0 d1 50 14 3e a5 07 44 bd 93 8d 33 bd c1 1e 75 bc
       0.14483954 -0.047858853 -0.043836188 -0.014960946
0003b0 c1 60 84 be 8b e2 f3 3c 1d 4c a1 3d 1b a5 3f 3d
       -0.25855067 0.02977111 0.078758456 0.046788316
0003c0 f7 18 35 3d be 7a fe bc 9e 2f 40 3d fd 4f a3 3d
       0.04421326 -0.031064387 0.04692041 0.07974241
0003d0 b5 a8 ce 3c c1 f9 58 bd 28 54 16 be 86 2d 8c 3c
       0.02522693 -0.05297256 -0.1468054 0.017111551
0003e0 be 3c 2e bc 92 07 35 bc 29 4a 49 bd 36 63 8f bd
       -0.010634599 -0.011049168 -0.04914299 -0.07001345
0003f0 87 67 b7 3d 64 64 4f bb 0f 2c 1a 3d 0c 98 41 ba
       0.08955293 -0.003164553 0.037639674 -0.00073850225

hidden_layers.0.bias f4 [128]
000000 a5 97 45 bd 81 56 64 3c da 0a b4 bc 68 6e 7a bc
       -0.048240323 0.01393664 -0.02197783 -0.015285112
000010 4c 8e 86 bd b4 c1 a9 bd 8c ac 8d bd 72 34 81 bd
       -0.0657011 -0.08288899 -0.06917676 -0.06308831
000020 9e 87 53 bd c3 10 86 bd 0b e5 ae bd 42 5a d5 3c
       -0.051643007 -0.06546166 -0.0853978 0.026044015
000030 b8 de a6 3b 5a 1d 85 3a 74 f0 84 bd be 1f 3f bc
       0.005092468 0.0010155842 -0.06491175 -0.011665283
000040 28 97 a2 bc 79 24 f1 bc c0 46 b2 bd 3b db 40 bd
       -0.019847468 -0.029436337 -0.08704901 -0.047084074
000050 44 5c 2d 3c 67 45 d1 bc 2e 31 e5 bb 20 8f 14 bd
       0.01058108 -0.025545789 -0.006994388 -0.036269307
000060 6f 52 87 bd 56 f0 00 be df ef e6 bc 1f f2 a9 bd
       -0.0660752 -0.12591681 -0.028190551 -0.08298134
000070 f8 68 29 bd 48 88 6f bd e7 93 fe bd 6b 60 74 bd
       -0.04135987 -0.058479577 -0.12430554 -0.059662264
000080 de 41 36 bd a8 61 90 bc cf ec 2d bd 60 5b 39 bd
       -0.04449641 -0.017624691 -0.042462166 -0.045253158
000090 d4 3d 25 bd bb f9 73 bd b9 3c a9 bc 0c 9c 73 bc
       -0.040342167 -0.059564333 -0.020658838 -0.014868747
0000a0 32 c2 5f bd 7a 05 20 bd f2 75 6c bd 68 d8 f1 bd
       -0.05462856 -0.039067723 -0.05772967 -0.11808854
0000b0 11 52 f4 bc 86 46 84 bd eb d0 15 3b 2e b1 84 bd
       -0.029824289 -0.06458764 0.002286012 -0.06479107
0000c0 ac 0d c0 bc b4 1b 5d bd a2 b7 d8 bc 69 4f f4 bc
       -0.02344402 -0.053981498 -0.02645475 -0.029823022
0000d0 4c 61 fe 3a 93 cb 92 bd 1b d7 1f bd 99 81 ab bc
       0.0019407659 -0.07167735 -0.0390235 -0.02093582
0000e0 87 82 5c bc 78 95 e6 bd fa 47 b1 39 bc f4 f0 bc
       -0.0134588545 -0.11258978 0.00033813698 -0.029413573
0000f0 7b d6 34 bd b8 cb d9 bc dc f2 9d 3c 3b 2f 0c bd
       -0.044149857 -0.026586398 0.019280843 -0.03422473
000100 78 0f 9e bc da 62 8e ba fd bb 05 bd b9 e4 14 bd
       -0.019294485 -0.00108632 -0.032649983 -0.03635094
000110 cb 09 e8 bd 00 77 e4 bc 23 09 91 bd 84 4b 91 bd
       -0.11329993 -0.027888775 -0.07081821 -0.070944816
000120 fe e6 89 bd a6 d2 8c bd 66 ae b8 bd 57 28 88 bd
       -0.067335114 -0.068761155 -0.09017639 -0.06648319
000130 c8 1c b1 bc 1a e0 26 3b ba 73 e3 bd 01 ff ef bc
       -0.02162017 0.0025463165 -0.111060575 -0.0292964
000140 0a e6 6d bd e3 b4 c3 bd dd 90 32 bd cc a0 b6 bc
       -0.05808071 -0.09555986 -0.043595184 -0.02229347
000150 0c 85 03 bd a0 5a 73 bd a9 70 55 bd 4a e2 17 bd
       -0.032109305 -0.0594126 -0.052109394 -0.03708104
000160 f9 38 4f bd 9b 3c bc bb 6e 47 e5 bd f5 27 4c bd
       -0.050591443 -0.0057445294 -0.11195265 -0.049842793
000170 2f a8 e0 bc b8 e8 fc bb 8a bf 2a 3a 91 44 cc bc
       -0.027423946 -0.007718172 0.0006513527 -0.024935039
000180 ed 94 1c bd e4 2b 02 bd a4 d1 19 be 12 ec 38 bd
       -0.038227964 -0.03178014 -0.15021378 -0.04514701
000190 80 a4 e9 bd 0f 78 d5 bc 68 ac 42 bd 6d a9 4a bd
       -0.11408329 -0.026058225 -0.0475277 -0.049477983
0001a0 11 ff 89 bd b1 94 bc bc b9 fa 13 be da 4d ea bb
       -0.06738103 -0.02302012 -0.14451112 -0.007150394
0001b0 4d 88 87 3c 83 db 6c bd 75 23 f6 bd ce 3e 2b bd
       0.016544485 -0.05782653 -0.12018482 -0.041807942
0001c0 36 66 8a bd ea 58 66 bd ab c3 ac bd 6d fe 34 bd
       -0.067577764 -0.05623714 -0.08435758 -0.04418795
0001d0 1c d0 ac bd c4 90 f7 bd be db c9 bb 88 b7 d7 bd
       -0.08438131 -0.12088159 -0.0061602285 -0.10533053
0001e0 50 41 68 3c 21 6a e5 bd af 87 fa bc 69 51 9a bd
       0.014175728 -0.11201883 -0.030582277 -0.07535059
0001f0 86 f7 ee bd 1d 5b 87 bd 1c a0 0c bd ff b8 8d bb
       -0.11668305 -0.06609175 -0.03433238 -0.004325032

hidden_layers.1.weight f4 [64, 128]
000000 c3 83 ed 3b 57 04 c8 3d 1b 51 2b 3e 99 5e 84 bd
       0.0072483732 0.09766453 0.16730158 -0.064633556
000010 5f 4a dc 3d 5b a6 aa bd e1 e7 62 3c 19 d5 f0 3d
       0.10756373 -0.08332511 0.01384923 0.11759395
000020 5a 6e af 3c 55 d2 b9 3d 58 3c 37 be ca 2c c1 bd
       0.021414924 0.09073321 -0.17894113 -0.09432371
000030 36 7d a4 3d 1c b4 70 bd 56 af ba 3d 05 18 13 3e
       0.080316946 -0.058765516 0.09115474 0.14364631
000040 4d a6 30 3d 8e e7 82 bd c1 5a 08 3e 3d 12 01 3b
       0.043127347 -0.06391822 0.1331587 0.0019694709
000050 bc 63 a7 bc 08 73 b5 3d 71 0a aa bd 8f 17 2d 3e
       -0.0204333 0.08859831 -0.08302773 0.16903518
000060 54 04 d5 3c 83 ff 24 be e4 3b f3 3d c3 b4 62 bd
       0.02600304 -0.16113095 0.118766576 -0.05534817
000070 43 1d 11 3e 1b 27 8e 3a 82 8f 05 bd 44 1b 0d 3e
       0.14171319 0.0010845395 -0.032607563 0.13779932
000080 e8 23 15 3c 18 2f 02 3d a4 d9 c6 3d 82 46 e9 3d
       0.009102799 0.031783193 0.097094804 0.113904014
000090 8c e8 90 3b c6 ac 49 bd e8 81 83 3e 01 92 61 bd
       0.004422253 -0.049237035 0.25685048 -0.05507088
0000a0 4d d9 e2 bd e6 44 86 bb db 0c 08 3c f6 78 08 bd
       -0.11076603 -0.004097569 0.008303846 -0.033318482
0000b0 6e 32 95 3d eb 82 67 3d 90 86 fe 3d 4e b3 a7 3d
       0.07285009 0.056521337 0.124280095 0.081884965
0000c0 ec c2 16 3e 99 45 23 3e 62 7b 00 bd 87 08 69 bd
       0.14722794 0.15944518 -0.031367667 -0.056892898
0000d0 8e 9c 49 3e f4 a9 d6 bb 30 2c a9 3d 59 f4 db 3d
       0.19688627 -0.0065510217 0.08260381 0.10739965
0000e0 46 ac 28 bd 56 96 ce 3d 00 24 81 bd 58 c9 87 bd
       -0.041179918 0.10087268 -0.063056946 -0.066302
0000f0 4e a2 64 bd 62 7b 22 3d d6 a2 07 3e b6 c1 38 3e
       -0.05581885 0.03966845 0.1324571 0.18042645
000100 1b 15 29 be a1 21 20 3e d2 9f 6c bc f0 29 7e 3c
       -0.16511957 0.15637828 -0.014442401 0.015512928
000110 cb 65 de bb e6 cf c5 3d 91 fe 9a 3d 94 7c a6 3d
       -0.006787037 0.09658794 0.07568086 0.0812923
000120 da 28 91 bc 28 3a 08 3e 9d 52 dd 3d dc ca 66 bd
       -0.017719675 0.13303435 0.10806773 -0.056345806
000130 f1 cb 05 3e d3 54 34 bc 1b 0e 10 3d 07 0a 8c bd
       0.13066079 -0.011006552 0.035169702 -0.0683785
000140 75 90 13 3e 79 c1 19 3d e6 77 0e bd 27 49 24 bd
       0.14410575 0.037538026 -0.034782313 -0.040108826
000150 b7 85 c1 3d 6c ac f3 3c 9f f0 35 bd e3 bf e1 3c
       0.09449332 0.029745303 -0.044418927 0.027557319
000160 aa 80 0f 3d 04 ba b9 bc 88 b5 cb 3c 74 74 c6 bd
       0.035034813 -0.022671707 0.024866834 -0.096901804
000170 17 e2 a6 bd 47 b6 03 3e 41 1a c3 3d ae 84 3c 3d
       -0.08148592 0.12862502 0.09526492 0.04602497
000180 61 2e 54 3d 5c 91 14 3e 3c 6b 1c 3d 4a cf 04 3e
       0.051802043 0.14508575 0.038188204 0.129697
000190 93 b7 ad 3c ae 17 1f bd 60 5d 14 3e 68 3b 0e bd
       0.0212057 -0.038840942 0.14488745 -0.034724623
0001a0 1b 37 e2 bc bd 06 9a 3d 90 b1 0d be 61 82 f7 bd
       -0.027614167 0.075208165 -0.13837266 -0.12085415
0001b0 ac 83 2d 3d 34 e6 1a be d9 70 c2 3d 4f b7 20 3d
       0.0423619 -0.15126878 0.0949418 0.039237317
0001c0 e8 cd 91 3d 15 5b c8 bd aa 77 83 3d 08 71 c5 3d
       0.071193516 -0.097829975 0.064193085 0.096406996
0001d0 b5 66 03 3e c1 38 b8 bd 63 54 8b bd ed ea cb bd
       0.12832148 -0.089952 -0.06803205 -0.09956918
0001e0 c7 ce 1e bc c8 35 7a bd ce 4b 01 be 4c 25 8c 3d
       -0.009692854 -0.061086446 -0.12626573 0.06843051
0001f0 66 9a c5 bd 33 cd c4 bd e2 75 85 3d 41 73 37 bd
       -0.0964859 -0.09609451 0.06516625 -0.04478765
000200 00 04 e5 bc 96 9f 86 3b f4 b4 bd bb 48 0f c6 bd
       -0.027956009 0.0041083796 -0.0057893936 -0.096708834
000210 20 ec 96 bc 90 85 79 bd ee ec b9 bd 80 c0 4b bd
       -0.01842314 -0.06091839 -0.09078394 -0.04974413
000220 0d 77 6e 3c 74 e6 31 be 33 fc 98 3d 4d f4 b1 3d
       0.014554751 -0.17373067 0.07469978 0.08689175
000230 da fa 98 bd b0 00 b4 bb 98 9c 1b be 67 41 5a be
       -0.07469721 -0.005493246 -0.15196455 -0.21314012
000240 e5 ca 3d bd c1 06 aa bd a9 6b 22 bd 02 32 00 be
       -0.046336073 -0.083020695 -0.039653454 -0.12519076
000250 98 66 c4 3c 35 03 6a be a1 9d 1d be 7a ed 02 bd
       0.023974702 -0.22852786 -0.15392162 -0.031964757
000260 60 e2 2f be df 66 a3 3d 9d d4 9c bd c8 4a 7b 3d
       -0.17176199 0.079786055 -0.0765774 0.061350614
000270 24 52 d4 bc fa 01 4c be 11 89 4e 3d 0e 45 3c bd
       -0.025918074 -0.19922629 0.050423685 -0.045964293
000280 b7 fd b9 bd b3 1e e1 3d 40 c5 af bc 8e 96 9d 3d
       -0.090815954 0.109921835 -0.02145636 0.07694732
000290 21 77 75 bd e7 5a ee bd 49 57 69 be 54 8c 1c bd
       -0.059928063 -0.11638432 -0.22787203 -0.038219765
0002a0 d8 4a 0a be cb 60 f6 bd 89 41 96 3c 2e 48 0f be
       -0.13505113 -0.120301805 0.018341796 -0.13992378
0002b0 0f 19 69 bc 37 8a 05 3c 88 4c 12 3d b5 35 2e bd
       -0.014227166 0.008150629 0.035717517 -0.042531688
0002c0 48 7f d7 bd fe c6 5e bd 9c 3d 86 bd 20 89 42 be
       -0.10522324 -0.054388992 -0.0655472 -0.18997622
0002d0 3f 41 38 be a0 3b ce bd af 19 3b be 6e 46 d7 bd
       -0.1799364 -0.10069966 -0.18271516 -0.1051148
0002e0 1d 62 74 bd e8 73 dd bd 23 30 9e 3d 96 57 c5 bd
       -0.05966388 -0.10813123 0.07724025 -0.09635846
0002f0 73 0d dc bd 9d ec 9a bd d7 32 69 3d 2a 01 50 bd
       -0.10744753 -0.07564662 0.05693325 -0.05078236
000300 a0 94 16 3e 28 28 c1 bd d2 56 16 be b9 dd 13 be
       0.14705133 -0.09431487 -0.14681557 -0.14440049
000310 5a 0c 06 be 03 1a 54 be 1b 79 33 3d ed a2 86 bd
       -0.13090649 -0.20713048 0.043816667 -0.065740444
000320 e5 75 88 bd df 44 0a 3e e0 01 36 3d e5 0a 26 3e
       -0.066631116 0.13502835 0.044435382 0.16215093
000330 9b ec 7d bd 7b 5b d7 3d b7 aa 75 3d d5 1e 8b 3c
       -0.061993223 0.105154954 0.05997726 0.016982475
000340 0a b4 f9 bd c4 54 c8 bc e0 72 68 3d 2d bb 06 be
       -0.12192543 -0.024454482 0.05675018 -0.1315734
000350 fe 9f 29 bd ba 00 22 be 4e b0 61 3e 87 02 87 3d
       -0.041412346 -0.1582059 0.22039911 0.06592279
000360 14 95 06 be d9 e3 03 be 7f 96 03 3b ca 10 62 3d
       -0.13142806 -0.12879886 0.0020078716 0.055191793
000370 ec ba d1 ba a6 ce da 3c 98 7b 08 bd 2a db 62 be
       -0.0016001142 0.026709866 -0.033320993 -0.22153917
000380 ed 73 1e be a3 f0 0d be 18 c0 29 3d 1c 81 4e bd
       -0.1547391 -0.13861327 0.04144296 -0.050416097
000390 88 41 14 be 57 10 f6 bd 04 cd 24 be 41 b7 6e bd
       -0.14478123 -0.12014835 -0.16093832 -0.058280233
0003a0 54 aa 6b be 75 78 c8 3c 31 ff 22 3d f7 f9 db bd
       -0.23014194 0.0244715 0.03979415 -0.107410364
0003b0 46 6c 66 bd 25 02 e0 bd ea c2 39 be 74 87 43 be
       -0.0562556 -0.10937909 -0.1814076 -0.1909464
0003c0 93 e2 af bc 2d f9 ea 3a 29 fd 7b bc d0 7b a7 bd
       -0.021470344 0.0017927043 -0.015380182 -0.08177912
0003d0 19 6f ce bd da 98 8b 3d eb e8 ff bd 4f e4 4b bc
       -0.10079784 0.068162635 -0.124955975 -0.01244457
0003e0 5e e4 22 be e5 86 88 3d 3d d5 b1 3d ce d3 39 be
       -0.15907428 0.06666354 0.0868325 -0.18147203
0003f0 d3 1b ed 3a 54 7e 25 3c e0 e7 0a bd 49 d7 11 be
       0.0018089957 0.01010092 -0.03391254 -0.14242281

hidden_layers.1.bias f4 [64]
000000 da 63 61 3e a2 63 9e 3d 85 38 4f 3e d8 21 83 3e
       0.22010747 0.07733847 0.20236404 0.25611758
000010 ee c1 05 3e a7 2e 88 3e 1d 57 71 3e b1 72 8d 3b
       0.1306226 0.26598093 0.23568387 0.004316651
000020 73 60 68 3e e4 29 c2 3d 0d a6 09 3e d3 f0 86 bd
       0.22693042 0.09480646 0.1344225 -0.06588902
000030 72 0f 90 3e 47 f3 66 3e 3d 8d 71 3e af b6 d0 bd
       0.28136784 0.2255374 0.23589034 -0.10191094
000040 c5 36 be bd 99 65 8f 3e 67 27 78 3e 26 11 67 bd
       -0.0928779 0.280072 0.24233781 -0.05641284
000050 1d 7d b3 3d dc ed 5c 3e 9f 26 89 bd 78 f1 06 3e
       0.08764098 0.21575111 -0.066968195 0.1317805
000060 26 8a 8a 3e f8 d3 52 3e 7c ce a6 3d ac ae 79 3e
       0.27058524 0.20588672 0.081448525 0.24383038
000070 fc 35 4d 3e 31 dc 4d 3e 07 4d 7d 3d ff 72 11 3e
       0.20040125 0.20103528 0.061841037 0.14204024
000080 aa 21 41 3e 28 80 8a 3e fc 20 f6 bd f6 40 76 3e
       0.18860498 0.270509 -0.1201801 0.24048218
000090 9d d2 c8 3d d3 51 74 3d 0b 41 91 3e 1d 99 90 3e
       0.09805796 0.059648346 0.28369936 0.28241816
0000a0 b1 2f 51 3d 23 82 90 3e d3 01 d6 bd 98 8e 45 3e
       0.051070873 0.28224286 -0.10449567 0.19292676
0000b0 0c d3 e4 3d fa 7d e3 bd 3e ff 6a 3e 8d 10 71 3e
       0.111730665 -0.111080125 0.2294893 0.2354147
0000c0 e1 66 70 3e 18 6d 96 bd f9 e5 29 3e 4e 38 13 3e
       0.23476745 -0.07345027 0.16591634 0.14376947
0000d0 39 61 8d 3e 4a bb 79 3e d0 5b 80 3e fe a3 7b 3e
       0.27613238 0.24387851 0.25070047 0.24574277
0000e0 20 5e 7f 3e 17 34 69 3e 26 dc 06 3e 54 ff 75 3e
       0.2493825 0.22773777 0.13169917 0.24023181
0000f0 86 d2 96 bd a5 ee 1f 3e 19 af 69 3e 78 3b 97 3e
       -0.07364373 0.1561838 0.228207 0.2953756

output.weight f4 [4, 64]
000000 4e 8c 9a 3d b2 2c 84 be e7 60 be 3d a0 9d 9f 3d
       0.07546292 -0.2581535 0.092958264 0.077937365
000010 d6 5e 16 3e 06 0f 95 3d b1 d3 ae 3d 40 5c 9c be
       0.14684615 0.07278256 0.08536471 -0.3053913
000020 e5 bb 9b 3d 2c ab bc 3d cb a1 11 3e b1 63 20 be
       0.076041974 0.09212336 0.14221875 -0.15663029
000030 d9 c4 8e 3d 8f 6e 00 3e 43 95 a9 3d 35 6f 60 be
       0.069711395 0.12542175 0.082804225 -0.21917422
000040 47 89 4c be 9c e2 95 3d af 63 c6 3d e1 8d 28 be
       -0.19974242 0.07318613 0.09686982 -0.16460373
000050 a3 e3 4b 3e c6 20 fe 3d 1c 5c d6 bb db 26 15 3c
       0.19911055 0.12408595 -0.006541742 0.009103502
000060 3a 31 a2 3d 1c 93 b1 3d 5f 27 11 3e 81 e5 97 3d
       0.079195455 0.08670637 0.14175175 0.07416821
000070 e7 ca f2 3d 70 d6 b0 3d 26 b9 01 3e 65 6e 23 3e
       0.11855107 0.08634651 0.12668285 0.15960081
000080 68 1e 19 3c 31 e4 9d 3d 59 54 c2 bd a2 fe a5 3d
       0.009345628 0.0770954 -0.09488744 0.08105208
000090 95 c8 58 be c9 1d de 3d 8f 34 96 3d 47 cf 93 3d
       -0.21170266 0.10845525 0.073342435 0.072172694
0000a0 0b 38 8a bd b6 dd b2 3d 0e bc bd bd 48 63 d4 3d
       -0.067489706 0.08733694 -0.09264384 0.10370499
0000b0 f7 39 06 be 66 ce f7 bd 06 be ac 3d dd 16 a9 3d
       -0.1310805 -0.12099914 0.084346816 0.08256314
0000c0 34 b9 a1 3d 47 f9 1b be 57 a2 d5 bb 5b e9 04 3e
       0.07896653 -0.1523181 -0.0065195966 0.12979643
0000d0 66 57 92 3d f0 4e d0 3d d5 a9 ad 3d 8d b7 a2 3d
       0.07145576 0.10171306 0.084796585 0.07945166
0000e0 84 0d b2 3d c4 1d ac 3d 7e 6f ae bd 95 56 a2 3d
       0.08693984 0.08404115 -0.08517359 0.079266705
0000f0 e8 e5 c0 bd 52 fe 01 3e 1c 76 aa 3d 82 3f 84 3d
       -0.09418851 0.12694672 0.08323309 0.06457426
000100 02 13 ed 3d 9b a6 82 3e f8 11 21 3e 62 35 13 3e
       0.11575891 0.25517735 0.15729511 0.14375833
000110 bd 7d d8 bc 3e 82 04 3e a7 fa 19 3e 33 07 21 be
       -0.026427144 0.12940308 0.15037023 -0.15725403
000120 f0 06 01 3e 9d 27 5a 3e be 53 33 3e 05 96 14 3d
       0.12600303 0.21304174 0.17512414 0.036275882
000130 18 13 11 3e cb ef 27 3e 9b b1 0a 3e 91 ae 76 be
       0.1416744 0.16400068 0.13544314 -0.2409003
000140 ef 9a 84 3d 82 72 10 3e 5b 80 ec 3d 2d e8 40 be
       0.06474864 0.14106181 0.11547919 -0.18838568
000150 cb 31 5c 3d 0a 74 2c 3e 90 f6 a7 3a a7 d1 a0 3d
       0.053758424 0.1684114 0.001281457 0.07852488
000160 36 98 09 3e dd 00 0f 3e 63 4e b7 bd de cc 05 3e
       0.1343697 0.13965173 -0.08950498 0.13066432
000170 dc aa 87 3d 6d 8a 0c 3e bd bc ff 3b c1 fa d0 3d
       0.06624386 0.1372468 0.007804482 0.102040775
000180 67 f4 bb 3e 4f 51 29 3e 8c b5 44 be 2a b2 0c 3e
       0.36709902 0.16534923 -0.1920988 0.13739839
000190 63 1c a3 3e 7d ef 00 3e 0a e3 06 3e 10 18 0a 3e
       0.31857595 0.12591358 0.13172546 0.13485742
0001a0 d8 18 8e 3b cf 5a e3 3d 7f b0 27 bd 4b d9 25 3e
       0.0043364577 0.11101305 -0.040939804 0.16196172
0001b0 7d 0c d7 3d 85 5c 5d be 48 4e 23 3e 90 55 1a 3e
       0.10500429 -0.21617325 0.1594783 0.15071702
0001c0 36 f5 03 3e 9d 9c 0a be c0 45 cc 3e e3 29 d5 3d
       0.1288651 -0.13536306 0.39896965 0.1040838
0001d0 dc 8a 13 3e 80 cb fd 3d 0f d8 25 3e b2 42 10 3e
       0.1440844 0.1239233 0.16195701 0.14087942
0001e0 c3 4e 1e 3e ef fb f7 3d c6 55 9f 3e ac 7f f9 3d
       0.15459733 0.121085994 0.31120127 0.121825546
0001f0 f1 06 20 bd 00 07 43 3c 59 b0 07 3e d3 88 ec 3d
       -0.03906912 0.011903524 0.13250865 0.11549535
000200 54 b4 ef 3d 8b 53 9f 3d 7c 82 10 3e 03 46 eb 3d
       0.11704317 0.077796064 0.14112276 0.11487963
000210 99 65 3a 3e 7f 78 e7 3d c8 b6 f5 3d 21 09 ec bd
       0.18202819 0.1130228 0.119977534 -0.11525179
000220 7b 0f f6 3d 8d 7a 95 3e c6 82 e3 bc 37 84 b0 3c
       0.120146714 0.2919506 -0.027772319 0.02154742
000230 ed 4b c8 3d c0 b9 09 3e 71 ed ec 3d ee b1 93 bc
       0.09780107 0.13449764 0.11568726 -0.01802918
000240 03 90 51 be 79 95 d4 3d 66 67 e0 3d 0b 4e 0f bd
       -0.20465092 0.10380072 0.10957222 -0.034986537
000250 0c 78 16 bd a4 01 12 3e 8c 0e 64 be e2 79 5b 3e
       -0.03673558 0.14258438 -0.22271174 0.21433213
000260 4c d8 e8 3d 12 a0 f6 3d 78 09 2e 3e 0d bb d9 3d
       0.1136938 0.1204225 0.169958 0.1063138
000270 38 fa f0 3d 2d e2 03 3e a6 7f c5 bd 4f 97 3d bd
       0.117664754 0.12879248 -0.09643488 -0.046286877
000280 d8 9c 26 3e 07 3f f3 3d 97 c9 b3 bd 30 e0 ef 3d
       0.16270769 0.11877256 -0.087786846 0.11712682
000290 7a 12 fa 3d 86 28 14 3d 72 14 d0 3d 71 52 d4 3d
       0.122105554 0.03617146 0.1016015 0.10367287
0002a0 37 b4 ab 3e 7e 18 d6 3d a8 a2 27 be 94 3a 1d 3e
       0.3353593 0.1045389 -0.16370642 0.15354377
0002b0 4d 8d 95 3e a0 ae 6a 3e 09 e6 f4 3d 69 df fa 3d
       0.29209366 0.22918177 0.11957938 0.12249643
0002c0 ad 53 e5 3d 39 fb 9c 3d 7e d8 5c 3e 62 fb 3f 3e
       0.111976005 0.076651044 0.2156696 0.18748239
0002d0 ab 4e d5 3d f4 7f fb 3d 4c bd 01 3e 86 55 e1 3d
       0.10415395 0.122802645 0.12669867 0.110026404
0002e0 6f 0d eb 3d dc 35 eb 3d b8 10 82 3e f2 48 e2 3d
       0.11477172 0.11484882 0.2540338 0.110490695
0002f0 9c f4 dc 3d 0b 4f a6 3d cd 4b f1 3d ac 77 bf 3d
       0.10788843 0.08120545 0.11782036 0.093489975
000300 ee e0 f4 3d 28 2d 49 3c ac c9 12 3e 53 5b 00 3e
       0.119569644 0.0122788325 0.14334744 0.12534837
000310 f8 54 8b 3e 4f ac e8 3d db 32 0f 3e 30 6e a4 3e
       0.27213264 0.1136099 0.13984244 0.32115316
000320 cb 5b 08 3e 13 f1 eb 3d 09 76 dd 3d 7d c9 33 be
       0.13316266 0.11520591 0.10813529 -0.1755733
000330 cd 76 e5 3d 34 32 17 3e e4 ed f1 3d 37 bd ea bd
       0.112043 0.14765245 0.11812952 -0.11461871
000340 8e 7b a7 bd 0c 79 e4 3d 61 5e 01 3e 7d f2 8f 3d
       -0.08177863 0.111559 0.12633659 0.07028673
000350 4b c5 8d bd 96 2d 20 3e a6 0a 6c 3c 07 b5 9e 3e
       -0.06922396 0.1564239 0.014406836 0.30997488
000360 6a c1 f6 3d c0 b1 0f 3e a3 bd 03 be 8f 6b f8 3d
       0.120486096 0.1403265 -0.1286531 0.1212989
000370 b6 ed 34 3e 3d 8a 0f 3e 54 a6 df bd 00 6a 26 3e
       0.17668805 0.14017577 -0.109203964 0.16251373
000380 81 46 6a 3e ae 5b 02 3e 29 b4 81 bd 88 87 01 3e
       0.22878458 0.12730286 -0.06333191 0.12649357
000390 d0 2a 14 3e ef 8b c6 3e 80 42 f6 3d 94 66 fc 3d
       0.14469457 0.38778636 0.120244026 0.12324253
0003a0 63 24 29 be b5 bf da 3d e3 5f 16 be 13 bc 1f 3e
       -0.16517787 0.106810965 -0.14685015 0.15599088
0003b0 8a 1a c3 3e 7f b5 8a 3c a1 7e 10 3e 62 80 07 3e
       0.38106185 0.016932247 0.14110805 0.13232568
0003c0 91 74 f0 3d f1 60 e0 bd 38 59 77 3e 54 52 c4 3b
       0.11740983 -0.1095599 0.24155128 0.0059912596
0003d0 1e 64 f3 3d ba e9 08 3e fc cd 0c 3e 67 3c ee 3d
       0.1188433 0.1337041 0.13750452 0.116326146
0003e0 d7 69 02 3e a2 00 01 3e 7c ba 19 3e 35 f2 e5 3d
       0.12735687 0.12597898 0.15012544 0.11227838
0003f0 c9 39 49 bd 48 6b 42 3c bf cf 04 3e c5 56 de 3d
       -0.049127374 0.011866398 0.12969874 0.10856394

output.bias f4 [4]
000000 d0 d8 01 40 02 88 9c 3f 72 45 be 3f d6 82 b3 3f
       2.0288582 1.2229006 1.4864943 1.4024303
