results/DDQN_PER_checkpoint.pth (torch_old, 54660 bytes, 6 tensors)

hidden_layers.0.weight f4 [128, 37]
00000000: 61c0 12bd 0855 9fbd 9372 b2bd d475 c8bd
00000010: a297 d5bd dc49 e83d 4b74 2c3e 5e02 e83d
00000020: 7900 143d 0dd3 49bd 2c8a b83d e4c4 a5bc
00000030: befa 4d3d 875a 753d d05b ddbc 1d96 eabc
00000040: b133 d93c fefc 5b3d 2015 5fbb 3e58 a03d
00000050: 8825 83bd 0ec0 3cbc b63d 14bd 42a2 4dbd
00000060: 3140 703d b31d da3d 1e61 9dbc f37a 403b
00000070: bc53 783c 0e27 e9bd 6efa 253e 31d8 573b
00000080: ac4d 11be 82d9 52bd 821a a0be 4a40 31bc
00000090: d186 86bb 6fcc 613d 604b 6a3c 75df 18bd
000000a0: b056 a8bd cbdd 03be b60b 9cbe 4b69 ebbd
000000b0: 5c53 3e3d 959f 27be 354b 74be c4c7 21be
000000c0: f85c f6bd 1565 10be 208b 84bd 5b38 983d
000000d0: 9379 51be 3d51 e93d 33b7 023e f389 25bd
000000e0: a6df 5ebe 6f2a 93bc 3cfa 233d 1395 0bbd
000000f0: ece9 bdbd cf09 26be 9d1e 0abe 614a ef3d
00000100: c78a cb3d 4cb5 1ebe 6f77 afbe 64aa 6cbc
00000110: a4c7 123e 3d98 563d da70 d0bb e0fd 39be
00000120: 37df 58bc 70ba cb3b 6930 24be 48da c43d
00000130: a4ee 6cbd 22ec d5bd f99f 8c3a db42 d83d
00000140: 70e9 1dbe 57e3 7abd 3114 b4bc 5bea d8bd
00000150: 23d3 4a3d f3ea 7f3c ceec 4cbe 839d 12be
00000160: 133e 043e 0c66 06be 4beb 06be a3ab e33d
00000170: 16cf f1bd 7b13 17bd ed44 b4bc e0f6 11be
00000180: de14 7cbe d22b 19be cf19 88bd f1f9 ec3c
00000190: 3e11 013e 5611 09be 10a4 dbbd 9fb5 42be
000001a0: dc5f c2bd d685 b4bd 2820 43bd be3e 0abe
000001b0: eb67 ebbd 1489 afbd 01cd acbd 8fa0 53bd
000001c0: def7 82bd dd1b 86bd 679b abbc 1a61 00bd
000001d0: df5d 833d 5867 c13d c67f 6b3c 1096 2f3d
000001e0: a0fd 243c a217 663d 944f e23d 3569 893d
000001f0: 7093 bb3d 041e 423c 7f30 7e3d a523 1b3c
00000200: dffa 153d 9ae8 b13c 5838 4fbd fe52 353e
00000210: 6661 2bbe 41d7 d83d 35fe 5a3d 7a09 4dbe
00000220: 7d58 c63b 2db4 92bd 60a5 93bd 6b61 b2bd
00000230: 020f 03be b2fc d839 e045 0bbd abb2 51bd
00000240: fad2 6ebd 6e97 c9bd 13e6 1f3c a2ba 573b
00000250: 5293 e0bd 41dd e8bd e605 ecbd 0f89 d1bd
00000260: dc11 083e a18a 883d 2b68 e33c 293c c9bc
00000270: 3517 e3bd 4cc4 c1bd 82a6 6d3d d59e c73b
00000280: 44ed 183d 15da 7abc 565c 11be e136 373d
00000290: 1ec7 b63d 7bab af3d 80d2 683d b180 a3bd
000002a0: 8d14 11be e36e cabd c959 11be d175 f4bd
000002b0: b2d7 6c3d fa30 10bd 4210 d53c bb8e f43c
000002c0: c4ba 07be 7321 0c3e 2666 173e 3698 7cbc
000002d0: 05ac 39ba 10c2 8ebd 7172 35be 346e 9fbd
000002e0: 436f 113c 8125 ba3d a9c6 a3bd 74f5 2dbe
000002f0: cf6b 01be 6f46 0e3d 38fd a4bd 1f78 0bbe
00000300: 66e4 e2bd a11a f43c 388f 11bd 3966 d33d
00000310: 994a 903d b5ba 02bd ffc9 783d 9fa8 20be
00000320: a7b9 01be 2ca6 04be 2f25 cf3c e00e 813d
00000330: f77f b73d 31c1 46be 6aa9 51be 7055 f1bc
00000340: ad9a a73d ed11 603d 4068 14be 51e4 23be
00000350: 53b4 b5bc 5c11 9cbd 21c4 4dbd c735 223c
00000360: 4073 23be 345d 66be 0b86 91bd d267 c1bd
00000370: 3fcb 0b3e 7ae9 40bd 88fb 8ebd 8a9f 9abd
00000380: 3739 ecbc a202 91bc ffe6 c63c b94e 08be
00000390: bb2b 1fbd eaf7 70bd d6c3 0e3c bfbb 1c3e
000003a0: 50bc 013e 85b1 233d 8101 00bd d3df 5bbc
000003b0: 340c 2abe eff1 ae3d 1b59 863d 9919 773d
000003c0: cc29 493d eeb1 86bd d10e 273d db0d 1a3d
000003d0: 54b8 a03d 5a7b 8b3b ee1c 14bd cde4 d33d
000003e0: cd9a aabc c1e9 12bd c6e7 89bd 33c1 23be
000003f0: fd44 033e 0180 b2bc 8a08 293d d36f 013d
-0.035827998 -0.0777989 -0.087132595 -0.09788099 -0.10429312 0.113422126 0.16841237 0.113285765
0.036133263 -0.04927354 0.09010729 -0.020235486 0.050287955 0.059900787 -0.027021319 -0.028636033
0.026513906 0.05370807 -0.003403969 0.07829331 -0.06403643 -0.011520399 -0.036191665 -0.05020357
0.058654968 0.10650196 -0.019211348 0.0029370158 0.015156683 -0.11384402 0.16208813 0.0032935257
-0.14189786 -0.051476963 -0.31270224 -0.01081855 -0.004105427 0.055126604 0.014300197 -0.03732248
-0.08219659 -0.12877576 -0.30477685 -0.114946924 0.046466216 -0.1636947 -0.23856814 -0.15798861
-0.12029451 -0.1410106 -0.064718485 0.07432624 -0.20456533 0.11392448 0.12765197 -0.04041476
-0.21765003 -0.01796457 0.040033564 -0.034077715 -0.09273133 -0.16214679 -0.1348824 0.116841085
0.09938579 -0.15498847 -0.34270808 -0.014444921 0.1433397 0.05239128 -0.006361109 -0.18163252
-0.013236812 0.0062172934 -0.16034092 0.09611946 -0.057844773 -0.104454294 0.0010728828 0.10559627
-0.1542108 -0.061251964 -0.021982284 -0.10591575 0.049517762 0.015619981 -0.20012209 -0.14317898
0.12914304 -0.13124865 -0.13175695 0.111167215 -0.11807077 -0.036883812 -0.022005523 -0.14254332
-0.24617335 -0.14958122 -0.066455476 0.028927775 0.12604234 -0.1338552 -0.10724652 -0.19014595
-0.0949094 -0.0881459 -0.04763809 -0.13500497 -0.1149443 -0.085710675 -0.08437539 -0.051666792
-0.06394933 -0.06548283 -0.020948125 -0.031342603 0.06414389 0.094435394 0.014373725 0.04286772
0.010070235 0.05617488 0.110503346 0.0670952 0.09158981 0.011847977 0.06205797 0.009468948
0.036616202 0.021717358 -0.050590843 0.1770744 -0.16736373 0.105879314 0.053465087 -0.20023146
0.006053029 -0.07163272 -0.07209277 -0.08709987 -0.12798694 0.00041387003 -0.034002185 -0.05119578
-0.05830667 -0.09843336 0.009759444 0.0032917638 -0.10965599 -0.11370326 -0.115245625 -0.1023122
0.13288063 0.06667066 0.027759632 -0.02456482 -0.11088411 -0.09461269 0.058020122 0.0060919323
0.03733565 -0.015310784 -0.1419538 0.04473007 0.08924697 0.08577629 0.056841373 -0.0798353
-0.14167996 -0.09884431 -0.14194407 -0.11936534 0.05782289 -0.035202958 0.026008729 0.029853215
-0.13254839 0.13684635 0.1478506 -0.015417149 -0.0007082823 -0.06970608 -0.17719437 -0.077846915
0.0088766245 0.090891846 -0.07996876 -0.16988164 -0.12638782 0.03473514 -0.0805611 -0.13620041
-0.1107872 0.029797854 -0.035536975 0.10322232 0.070454784 -0.03191634 0.060739513 -0.15689324
-0.12668477 -0.12954015 0.025286285 0.06301665 0.08959954 -0.19409634 -0.20474783 -0.029459685
0.08183799 0.054704595 -0.14492893 -0.16005065 -0.022180712 -0.076204985 -0.05023587 0.009900517
-0.15961933 -0.22496492 -0.07105645 -0.0944363 0.13651751 -0.04709766 -0.069815695 -0.07549961
-0.028835876 -0.01770145 0.02428007 -0.1331128 -0.038860064 -0.05883018 0.008713683 0.15305994
0.12669492 0.039964218 -0.031251434 -0.013420063 -0.16606218 0.08542239 0.06559964 0.060327146
0.049112126 -0.06576906 0.040785614 0.03761087 0.07847658 0.004256648 -0.036160402 0.10346375
-0.020825768 -0.035867456 -0.067336604 -0.15991668 0.12819286 -0.021789553 0.04126791 0.031600785

hidden_layers.0.bias f4 [128]
00000000: 0608 57bd 7048 333c 3699 0fbd 653b 20bc
00000010: 1b9a 69bd 0c07 9bbd 3253 3abd 0fae 56bd
00000020: 78a7 69bd 338d 25bb 1195 b3bd c015 b3bc
00000030: d9c4 94bc cc9d 76bc 6199 bfbd 5c4c 65bc
00000040: f283 b1bc c495 01bd 3e27 9abd 5723 80bd
00000050: 85fb 09bc 06b0 e7bc e043 93bc da5b 38bd
00000060: 7101 98bd 5159 ddbd 4762 e1bc db21 c3bd
00000070: a105 cdbc 5669 a7bd f731 c4bd b6f0 9ebd
00000080: a557 96bd e8ae 89bb f3cc 7fbd c1e3 2ebd
00000090: d5cf 12bd c82a 8dbd ab0e 58bc d353 c8bc
000000a0: 4291 dabc cc31 7cbd c087 5abd e587 bcbd
000000b0: 1e3a 1cbd de63 68bd d190 fcbc c359 68bd
000000c0: 2e63 debc 5c72 d1bd 71d5 abbc bbaa 5abc
000000d0: 1563 47bc 1595 a2bd 59a6 5dbd 82a3 babc
000000e0: d70c bcbc 6ddc fabd 32de 35bd 8d73 33bd
000000f0: 4ad6 48bd 43e2 e5bc 55c8 c2bc 48c8 efbc
00000100: 9d15 80bd 3e71 fcbb ed12 2bbd 5aac 20bd
00000110: c3ad 02be 5cce f4bc 0c51 8ebd 2bbf 90bd
00000120: c7d8 84bd 7ee6 9dbd 7e49 99bd 9360 91bd
00000130: 132b 86bc 0690 c43a cb52 a4bd 6049 4fbd
00000140: 4654 82bd c359 f0bd b262 35bd 5f39 86bc
00000150: b9c8 0abd bf70 7bbd a8a0 7bbd b17b 25bd
00000160: 1b8d 36bd 899b 87bb 8e29 c4bd 8ac6 f7bc
00000170: 76ad f2bc af67 a8bb d6a3 633b 7c1d f1bc
00000180: 8274 2dbd e451 2ebd 2c55 04be 0cf1 58bd
00000190: 7cdb afbd 4847 87bd e2e3 41bd d312 33bd
000001a0: bfff 90bd 3396 0ebd ad77 2fbe 833c 9bbc
000001b0: 248c e0bc 2acb f6bb 20ea 08be 305d 60bd
000001c0: 9872 8bbd 67c4 4abd 6316 94bd e898 5fbd
000001d0: 6828 9abd ea63 0dbe 527d ebbb b527 83bd
000001e0: 6d2f 053d c88c b1bd 8a39 bfbc 0b6c 98bd
000001f0: cf38 ffbd 4e71 13bd b0b7 02bd 8667 bebb
-0.052497886 0.010942563 -0.035058223 -0.009779786 -0.057031732 -0.075697035 -0.045489497 -0.05241209
-0.057044476 -0.0025261163 -0.087686665 -0.021860957 -0.01816027 -0.01505227 -0.093554266 -0.013995256
-0.021669362 -0.03163697 -0.07527016 -0.062567405 -0.008421783 -0.028282177 -0.017976701 -0.04500947
-0.0742215 -0.108080514 -0.027512683 -0.09527942 -0.025027098 -0.08174388 -0.095798425 -0.07760756
-0.073409356 -0.0042017587 -0.062451314 -0.04269767 -0.035842735 -0.068929255 -0.013187091 -0.024454033
-0.026680592 -0.061570928 -0.053352118 -0.09205607 -0.038141362 -0.056735866 -0.030830773 -0.05672623
-0.027146902 -0.102268904 -0.0209758 -0.013346369 -0.012169619 -0.079385914 -0.05411372 -0.022783045
-0.022955341 -0.12249074 -0.044401355 -0.04381137 -0.049032487 -0.028061992 -0.023777166 -0.029270306
-0.062541224 -0.007703929 -0.041766096 -0.039226867 -0.12761597 -0.029883556 -0.06949052 -0.070677124
-0.064866595 -0.077099785 -0.07484721 -0.07098498 -0.016377961 0.0014996536 -0.08023604 -0.050607085
-0.0636373 -0.11735871 -0.044283576 -0.016384779 -0.03388283 -0.06138682 -0.06143251 -0.040401164
-0.044568162 -0.0041384143 -0.095782384 -0.030246038 -0.029623728 -0.005139313 0.0034735105 -0.029433005
-0.04234744 -0.042558566 -0.12923115 -0.052964255 -0.08586785 -0.06605393 -0.047336467 -0.043719124
-0.0708003 -0.03481121 -0.17135496 -0.018949753 -0.027410574 -0.0075315433 -0.13370562 -0.05477637
-0.068089664 -0.04950371 -0.072308324 -0.054589182 -0.07527238 -0.13807645 -0.00718657 -0.06404058
0.032515932 -0.0866943 -0.023342866 -0.074424826 -0.12462007 -0.035996728 -0.03191346 -0.005810681

hidden_layers.1.weight f4 [64, 128]
00000000: 3a30 4a3c c579 a83d 26e3 0f3e f47a 73bd
00000010: 5f30 c93d b3a2 aabd 67b9 adbb 4cfa e43d
00000020: ec88 61bd 178b 263e b5ab fabc 233f 99bd
00000030: 20e7 843e 8ac9 4abd d098 973d 8ff8 183e
00000040: 93d7 763d a73c 8cbd c391 003e 2aac 77bd
00000050: b53a 553d 9416 863d 5f49 70bd 0ba4 213e
00000060: a2e3 f0bc b9f6 edbd 8a5b f03d 1de0 19be
00000070: 2ecd 423d f4d7 733d c330 d1bc ea06 1f3e
00000080: 3e8f 303d 76bd d63c a273 f23d dd4d d93c
00000090: c809 06bd 0ebf 22bd 3627 3e3e 1d16 cebc
000000a0: c283 1bbe fb88 a83d 5ed4 ffb8 7df2 6bbb
000000b0: 27fa cc3d f176 8a3d be0d 083e 030d 393b
000000c0: f6a5 0b3e e4ef e63d 335a 7dbc 1aa5 6cbd
000000d0: f193 463e 454a 553b 19d0 d03d fe12 d33d
000000e0: a7c8 2bbd aeac cf3d 864c 04bc 9387 8fbd
000000f0: 97d2 10bd 24be 763d 11fb 333e 7914 2b3e
00000100: 4592 55be 2d3b 173e 806b 013c 364a 9e3c
00000110: 9304 03be 30f1 f83d 8251 ab3d 4116 823d
00000120: 0360 f5bc 51df 0c3e d2eb 143e 3b4b 543d
00000130: 7f85 ee3d 4b4a c2bc 1958 59bd 705b 59be
00000140: c922 143e c4c8 393c 20f6 9fbc 2aa0 27bd
00000150: 6262 8e3d fa20 fd3c c7a7 8fbd 3110 3b3d
00000160: 9bff 4f3d e638 a9bc 08c2 1cbd 6a2b d9bd
00000170: c809 cebd 7fba f33d 0b86 d63d 6f63 963d
00000180: 74e8 523d a54c 3d3e f7f5 8b3d 2d29 013e
00000190: 3e34 0bbd d746 f3bd 3070 133e 4d04 cb3c
000001a0: 848f c0bc b9fb a83d 580d 60bd d713 debd
000001b0: c403 953d 5b4a fcbd 3b31 073d b2a9 a73c
000001c0: db99 a13d 9c83 d7bd 2b5f 413d 6e70 a83d
000001d0: 47b7 463e ebbc bdbd 2798 4abd 4860 38bb
000001e0: fb94 043b 2f8f adbd fab9 17be 86c5 803d
000001f0: a87b dbbd a602 90bd 6676 733d 237b 80bd
00000200: 7fa0 24bd d288 163b 4aa8 1abd eb6f e3bd
00000210: c5b3 b2bc 5d03 1dbc 2dee 02be c546 63bb
00000220: f88a 2a3d 5a30 2dbe 25fd 67bd bfe3 493c
00000230: 843d d5bd 881a 1a3d 0ee5 0fbe 373f 7cbe
00000240: cb86 7abd 027b a43c 6964 83bd 3c54 19be
00000250: 5ec3 4e3d 713c 43be 728c 45be cc42 95bd
00000260: 9d90 50be 775c b63c 0a57 cdbd e998 cc3d
00000270: 90cb ccbb 7887 18be 1e10 733c bc47 52bd
00000280: 0a0a 39be 6588 173e 9f6d 5abd f8e6 273d
00000290: e23e 853c 958e 41be e7e5 45be b88b babd
000002a0: ef0b 1ebe 34bf 2abe b47c 943c 3b64 0abe
000002b0: 733b 00bc 7e22 80bb 59d8 123e 08cd 84bd
000002c0: aeee 12be 1471 a2bd f0fd 6fbd 55d5 2bbe
000002d0: f973 0fbe 4c8a c4bd 2b78 69be 2a23 15be
000002e0: 74bd a63b dbbf 0dbe 5ee7 3abc 7eb3 f1bd
000002f0: 7e89 99bd 645d 5bbd 7ff5 9a3c 76ef 2fbd
00000300: 452a 633e 6081 15be 289b eebd 2bef 16be
00000310: 5733 21be 888d 34be 214f e7bb b3e4 8ebd
00000320: 50d7 08be cb69 ed3d 855f 533d c28b 513c
00000330: 21e8 95bd 51e0 c93d baf0 fe3d bc37 263e
00000340: b261 2abe a976 96bd 8609 a93d 8c71 cfbd
00000350: e903 23bd 242a 73be c56f 833e 8e89 45bc
00000360: 304f 0dbe d167 f7bd 3add 2abc 1f4f 4c3c
00000370: 07fa 5bbd 7c5d 37bd 2f10 b9bc 606d 33be
00000380: 1f44 0cbe 1679 5dbe 5647 603b f030 953d
00000390: 51b8 1bbe 6666 c7bd ab7d 27be ed43 17be
000003a0: 68ff 51be 7f50 4c3b 0510 4dbd 8beb cfbd
000003b0: df95 1fbd 557e c0bd 92fd 50be b3e6 23be
000003c0: 69e5 89bc 94ef c2bc 5ea5 acbc 448e 38bd
000003d0: 9bca f9bd 5537 8b3d 2d06 30be 5378 2f3c
000003e0: 699c 37be 14b4 3b3d a2ed a43d 988b 88be
000003f0: a92f abbc 5a22 973d 33ad 2ebd 33af f1bd
0.0123406 0.08226351 0.14051494 -0.05944343 0.09823679 -0.08331814 -0.0053016427 0.11180553
-0.05506222 0.16263996 -0.030599454 -0.074827455 0.25957584 -0.04950861 0.074021935 0.14938568
0.06026418 -0.06847506 0.12555604 -0.060466923 0.05205794 0.06547275 -0.058663722 0.15785234
-0.029405419 -0.11619324 0.1173621 -0.15026899 0.047558956 0.05953212 -0.025535947 0.15529981
0.043105356 0.026213389 0.118384615 0.026526386 -0.032724172 -0.039732985 0.18569645 -0.025157029
-0.1518698 0.08229252 -0.00012198904 -0.0036002689 0.1000865 0.067609675 0.13286492 0.0028236515
0.13637528 0.11276224 -0.0154634 -0.05777464 0.19392373 0.0032545489 0.101959415 0.10306357
-0.041939404 0.10140358 -0.008074885 -0.070082806 -0.035357084 0.060239926 0.17576243 0.16707028
-0.20856579 0.14768668 0.007899165 0.019322496 -0.12794714 0.12155378 0.08365156 0.06351901
-0.029953009 0.13757063 0.14543083 0.051829558 0.11646556 -0.023717066 -0.053062532 -0.21226287
0.14466394 0.01133937 -0.019526541 -0.04092423 0.06952359 0.030899514 -0.07014423 0.04566974
0.050780874 -0.020657014 -0.03827098 -0.10603984 -0.100604594 0.11900806 0.104747854 0.07343184
0.051491216 0.18486269 0.068340234 0.12613364 -0.03398537 -0.11878746 0.14398265 0.024782324
-0.023505934 0.08251137 -0.054700226 -0.10843628 0.07276109 -0.1231887 0.033005934 0.02046666
0.07890674 -0.10523149 0.0472099 0.08224569 0.19405852 -0.09264549 -0.04946151 -0.002813356
0.00202304 -0.08474576 -0.14817038 0.062876746 -0.10716945 -0.07031755 0.059439085 -0.062734865
-0.040192124 0.0022969735 -0.03775815 -0.11105331 -0.021814236 -0.009583321 -0.1278617 -0.0034679633
0.041636437 -0.16912976 -0.0566379 0.012322365 -0.10412124 0.03762296 -0.14052221 -0.2463349
-0.061163705 0.020078186 -0.06415636 -0.14973539 0.050479285 -0.19066025 -0.19291857 -0.07288131
-0.20367666 0.022260888 -0.10026367 0.09990103 -0.0062498525 -0.14895427 0.014835386 -0.051337942
-0.18070236 0.14798124 -0.0533272 0.040991753 0.016265336 -0.18902047 -0.19325982 -0.091086805
-0.1543424 -0.166745 0.01812587 -0.13514797 -0.007826674 -0.003910362 0.14340343 -0.06484419
-0.14348862 -0.07931724 -0.058591783 -0.16780598 -0.14009084 -0.095966905 -0.22799747 -0.14564195
0.0050885025 -0.13842718 -0.011407701 -0.118018135 -0.07496928 -0.05355586 0.01891589 -0.042952977
0.22184093 -0.14600134 -0.116506875 -0.14739673 -0.15742241 -0.17632115 -0.0070589934 -0.06977215
-0.13363385 0.11592444 0.051604766 0.0127896685 -0.07319666 0.09857238 0.12448259 0.16232198
-0.1663883 -0.073468514 0.082537696 -0.10129079 -0.03979865 -0.23746544 0.2567121 -0.012056721
-0.13799739 -0.12080348 -0.010428721 0.012470036 -0.05370524 -0.044766888 -0.022590725 -0.17522192
-0.13697861 -0.21628222 0.0034222207 0.07284725 -0.1520703 -0.09736328 -0.16356532 -0.14772005
-0.20507586 0.003117591 -0.050064106 -0.10152348 -0.038961288 -0.09399096 -0.2040923 -0.16005974
-0.016833024 -0.02379588 -0.021074947 -0.04505755 -0.12196847 0.06797663 -0.17189856 0.01070984
-0.1793076 0.045826033 0.08053137 -0.26669002 -0.02089675 0.07379599 -0.042645644 -0.11800995

hidden_layers.1.bias f4 [64]
00000000: 2d62 5a3e 028d 603d 1140 493e 3792 7b3e
00000010: 1ae7 f23d af2b 803e 0dbb 5f3e 61a7 083d
00000020: c831 613e 81cd ce3d 50f0 c03d 6e11 96bd
00000030: 3d5f 8c3e 0af5 493e 1966 693e 8b23 dfbd
00000040: 2483 e33c 230d 8a3e 3ea0 733e c7d4 36bd
00000050: f937 d03d c396 543e db64 e2bd fbfa fe3d
00000060: 2163 853e cee6 533e 3eef 76bd 19c1 773e
00000070: 6056 343e f895 333e f32d 523d 49ad 123e
00000080: 4553 033e f12f 883e 9d5f 44bd d2ca 743e
00000090: 8e02 c53c 94ee 543d 8511 8c3e 2408 893e
000000a0: df92 a63d e796 8c3e fb89 bbbd c5c4 2e3e
000000b0: 08ab 953d e599 d93d 4836 743e f9c0 6a3e
000000c0: e7a8 723e 9d14 56bd 0333 113e c18e 073e
000000d0: 62b8 893e 8a53 693e bea2 793e 2d67 733e
000000e0: bd2f 713e 2e14 663e f07d e03d 4362 7a3e
000000f0: 2693 c33d 0c74 193e e405 693e 603a 943e
0.21326514 0.054821976 0.19653346 0.24567495 0.118604854 0.25033328 0.21848698 0.03336275
0.21991646 0.100977905 0.09420836 -0.07327543 0.2741641 0.19722381 0.22792853 -0.10895451
0.027772494 0.26963148 0.23791596 -0.044636514 0.10166926 0.20760636 -0.11054393 0.124502145
0.26052192 0.20693514 -0.060286753 0.24194755 0.17611074 0.17537677 0.05131335 0.14323916
0.12824734 0.26599076 -0.047942746 0.23905495 0.02404907 0.05198534 0.27357116 0.26764023
0.08133482 0.2745888 -0.09157177 0.17067249 0.07308012 0.10625056 0.23848832 0.22925176
0.23697244 -0.052265752 0.14179616 0.1323805 0.26898485 0.22785774 0.24378487 0.23769827
0.23553367 0.22468635 0.10961521 0.24451546 0.09549551 0.14985675 0.22756153 0.28950787

output.weight f4 [4, 64]
00000000: 6936 ab3d 0b78 b8be d22b bd3d e13d a83d
00000010: 4956 1d3e 3ddb 943d 7c3c ae3d 1d6c 9bbe
00000020: 69a6 a53d c644 bf3c 688d 1a3e 59f0 20be
00000030: f077 943d 74ca f33d 0af6 a83d a015 53be
00000040: d095 c0be adf1 933d 2ed9 973d ef13 0dbe
00000050: d67e 3a3e 4d3e c73d ab81 d9bc b269 043d
00000060: af27 9c3d a8a4 b63d 9fb6 213d 888d a23d
00000070: 0fa0 f53d 35d6 e33d 1046 0a3e 86e7 103e
00000080: 0bed 00be ba29 a13d 367a 1dbe 4e15 a43d
00000090: be53 46be 2a44 99bc 5334 943d 9e55 953d
000000a0: 7a25 e23d 2a11 913d 643d 9ebd d94f 0d3e
000000b0: bf79 39be 861f 23bd 06d6 ac3d b1ef b03d
000000c0: 9e96 a23d 9963 3cbe dd87 193c e910 003e
000000d0: 79c3 983d d89b a43d ea9a b03d 25db a63d
000000e0: d135 a33d 0f36 aa3d c45b c1bd f42b 9f3d
000000f0: 6450 f9bd 32d1 f73d 7343 aa3d 72dd 823d
00000100: 94ec 093e 153a 553e 8797 423e 6507 0d3e
00000110: 198b 27bd afa4 f13d 190b 063e ff68 f6bd
00000120: 4764 083e 2524 893e efee fa3d 4b77 f03c
00000130: ba28 0b3e a6c3 163e 1096 113e 7b81 76be
00000140: 34b9 353e beb2 043e c5c5 063e 1966 6fbe
00000150: 420e 923c 131e 343e 7a02 223b 0318 523e
00000160: 69ee 053e 29f5 233e 349b 3fbe fba1 0c3e
00000170: 1195 4c3d 496f a83d 0da2 7dbd 8008 943d
00000180: d21d b13e 37e2 1e3e 252c 45be 3182 123e
00000190: 6491 863e 330a 373e 275c 033e 8c7b 0d3e
000001a0: b71e 88bd ac1d e33d 0256 5cbd d94d 033e
000001b0: e9f0 75bd 0525 40bd 64d4 1e3e 62eb 203e
000001c0: b413 113e 5be2 24be 8a01 be3e 9a7c ad3d
000001d0: 79e5 fd3d a4ae 0b3e 05d6 213e 9f08 0b3e
000001e0: 1491 0f3e 804a f93d 2b2e 903e dc78 f73d
000001f0: 7b40 c63d bd08 c4bc ddba 143e 1dd4 f63d
00000200: 2dac f53d 9470 1e3d 6d4a 0d3e 76bd ef3d
00000210: 17ba 1c3e a5a5 df3d 9ba8 fd3d 4393 08be
00000220: ae49 ff3d c24c 993e 985f 7abd 68ab 5d3d
00000230: dd47 cf3d f51f 163e 6f86 f83d 012e 6cbd
00000240: 317a 28be 94b7 d93d 5d33 e43d 37fe d6bd
00000250: 3be0 973d bd6f 0b3e 168e 3dbe 3534 733e
00000260: e39a dd3d b309 063e 4ecf bf3d 0b52 ed3d
00000270: caf6 183e 4862 893d e024 9dbd 6076 af3c
00000280: a670 253e f4d6 d83d 49b5 2cbe d4e1 ed3d
00000290: 8549 ecbc 9206 1f3b 9b61 cd3d 66a5 d03d
000002a0: 85bf 7e3e a78d c93d a32b 21be 1251 1b3e
000002b0: e737 4b3e fe5c 963e bf4a fd3d b628 f33d
000002c0: f097 e83d f70e 223d a9ae 773e a359 2e3e
000002d0: 16a7 d73d 3e2c f43d 0f50 f23d 7030 e13d
000002e0: 30fc ee3d 28af f43d 6e29 953e 44ff e43d
000002f0: b43d 943e 7549 ee3d d835 003e 2fc9 bd3d
00000300: fab8 f63d dc4e fbbc da8c 233e 90a0 fa3d
00000310: 4ba8 9f3e 1e3b f13d f0b0 123e d7d1 c03e
00000320: 5517 053e a5b7 443e b103 8f3d 3af6 19be
00000330: 0fe2 e03d 8d10 123e 8b43 0d3e 3b40 c3bd
00000340: ffac bd3c 0085 ea3d c52a ea3d b135 063d
00000350: 4600 1a3c 0041 233e bc48 893b 1c97 9d3e
00000360: a576 013e 9fe2 143e b4b3 58be 7124 f23d
00000370: ebb0 273e 7f6b 303e 676f bbbd 1396 273e
00000380: dfbb 613e f3fd 013e 772b a8bd 5d25 093e
00000390: 73a7 bfbd 0395 e93e 6113 f53d 92d4 e03d
000003a0: 4225 3fbe dfd6 e23d 7e0d 2dbe 7a40 243e
000003b0: 2e0f cb3e d273 863e afa3 083e 6eeb 043e
000003c0: a4c2 f53d c29f 06be 9d2f 723e 899e cbbc
000003d0: b0d9 e83d 4e97 063e 23d1 083e 8df1 003e
000003e0: f8b2 043e e0c3 083e 7f7c 2d3e 5870 e13d
000003f0: b6d8 433c ed86 903d 2a5a 063e 90ee df3d
0.08359987 -0.36029086 0.09236874 0.082149275 0.15364946 0.07268379 0.0850763 -0.3035592
0.08088381 0.023348223 0.15093005 -0.15716685 0.07249439 0.11903849 0.08250053 -0.20613718
-0.37614298 0.0722383 0.074144706 -0.13777135 0.18212447 0.0972868 -0.026551088 0.03232736
0.076247565 0.089181244 0.0394808 0.07937151 0.119934194 0.11124841 0.13503289 0.14150819
-0.12590425 0.07869287 -0.15378651 0.08011876 -0.19367883 -0.018709261 0.072365426 0.07291721
0.11042304 0.07083352 -0.07726553 0.1379999 -0.18112849 -0.039824985 0.08439259 0.086394675
0.07938884 -0.18397368 0.009370771 0.1250645 0.074591585 0.08037537 0.086232975 0.08147267
0.07969249 0.08311092 -0.09441331 0.07772055 -0.121735364 0.12100448 0.08313646 0.063898936
0.13469154 0.20822938 0.19003116 0.13772352 -0.04090414 0.11798989 0.13090171 -0.12031745
0.13319503 0.2678539 0.12252604 0.029353758 0.13589755 0.14723071 0.142174 -0.2407283
0.1774643 0.1295881 0.1316138 -0.23378791 0.017829064 0.17589597 0.0024720714 0.20516972
0.13079228 0.1601149 -0.18711549 0.13733666 0.04994685 0.08224351 -0.06192212 0.07228184
0.34593064 0.15515982 -0.19255121 0.14307477 0.262828 0.17874984 0.12828122 0.1381666
-0.066464834 0.11089644 -0.05379296 0.12822665 -0.060044203 -0.046910305 0.15510708 0.15714791
0.14167672 -0.16101973 0.3711055 0.084710315 0.12397284 0.13640839 0.15804298 0.13577507
0.14020187 0.12172413 0.28160223 0.12083599 0.096802674 -0.023929948 0.14524408 0.12052176
0.119957305 0.03868158 0.13797922 0.11706059 0.15305363 0.10920266 0.123856746 -0.13337426
0.12465225 0.29941374 -0.06112632 0.054118544 0.10121129 0.14660628 0.12135016 -0.05766106
-0.16452862 0.10630718 0.11142609 -0.104977064 0.074158154 0.13616844 -0.18511233 0.23750384
0.10820558 0.13089637 0.09365712 0.11587914 0.14937893 0.06708199 -0.07673049 0.02141875
0.16156253 0.10587874 -0.1686603 0.11615339 -0.02884365 0.002426539 0.100283824 0.10187797
0.24877746 0.09841471 -0.15739302 0.15167645 0.19845544 0.29367822 0.12367772 0.11872999
0.11357105 0.039565053 0.24187721 0.17026381 0.10529916 0.11922501 0.11831676 0.10995567
0.11669195 0.11947471 0.2913317 0.111815006 0.28953326 0.116351046 0.1252054 0.09266888
0.12047 -0.030677252 0.159717 0.12237656 0.31183085 0.11778854 0.14325309 0.37660095
0.12997182 0.1921068 0.06983126 -0.15035334 0.10980617 0.14264126 0.13795297 -0.09533735
0.02315378 0.11451149 0.11433939 0.032766048 0.009399479 0.15942764 0.004189579 0.3077935
0.12642916 0.14539574 -0.21162301 0.11823357 0.16376083 0.17228507 -0.09152108 0.16365843
0.22044323 0.1269453 -0.08211415 0.13393159 -0.0935811 0.456215 0.11966587 0.109780446
-0.18666556 0.1107614 -0.16899678 0.16040221 0.3966002 0.2626024 0.1334369 0.12980434
0.120000154 -0.1314688 0.23650976 -0.024855869 0.113696456 0.13143656 0.1336103 0.12592144
0.12958896 0.1335597 0.16942023 0.11007756 0.011953523 0.07056985 0.13120332 0.10934174

output.bias f4 [4]
00000000: bc04 f83f ab59 933f d4b2 b13f de33 a43f
1.9376445 1.151174 1.3882699 1.2828329
